Lab4/best_weights.npz (npz, 946138 bytes, 10 tensors)

param_0 f4 [784, 256]
000000 ab d1 59 be 44 c8 88 be af 84 09 be d7 a1 21 3f
       -0.21271388 -0.2671529 -0.13429521 0.63137573
000010 b5 dd 27 bf df 38 07 3f 42 06 5f be 25 ce 50 bf
       -0.65572673 0.52821153 -0.21779731 -0.8156455
000020 59 01 28 3e 46 ee 1d 3f b5 f0 87 be e6 f0 32 3e
       0.16406764 0.616917 -0.26550832 0.17474708
000030 09 1a 2e 3f 7c bf 50 bf 1d 08 8d bd 87 bf ab 3e
       0.68008476 -0.8154218 -0.06886313 0.3354456
000040 41 45 00 bf 0f fa 36 bf c3 ea d0 3e 9d f6 24 3f
       -0.50105673 -0.7147531 0.4080411 0.644388
000050 2a 11 34 bf a1 06 0d be 0b 51 ea be 5b 14 04 bf
       -0.7033869 -0.1377206 -0.45764956 -0.5159356
000060 b1 82 c2 3e b4 90 71 3f 56 b1 e3 bd a1 3d 05 3f
       0.37990335 0.94361424 -0.111178085 0.52047163
000070 7b e5 0a 3f eb 0b f1 3e 6c a3 ed 3e 52 59 b6 be
       0.5425641 0.47079405 0.46413743 -0.3561502
000080 c0 48 42 3e 94 8d 28 3f 74 ec 7b 3f 1e 40 4f bf
       0.18973064 0.6584103 0.98407674 -0.8095721
000090 33 8d 5d bf f0 bd c5 3e 11 54 76 3d ff c5 5b 3f
       -0.8654358 0.38621473 0.060138766 0.85848993
0000a0 c6 70 5e 3f 33 a3 04 3f 6f f7 56 3f 9a c0 98 bd
       0.8689083 0.5181152 0.83971304 -0.07458611
0000b0 bb f5 ee be ea fb 76 bf e3 a8 a6 3e 6f 3d 0c 3f
       -0.46671852 -0.9647814 0.32550725 0.5478124
0000c0 5b fb a0 3e 70 0b 5e bf 70 26 25 bf 55 37 15 bf
       0.3144177 -0.867362 -0.64511776 -0.58287555
0000d0 18 b5 29 be 38 ef 4d 3f 1e 22 5b bf aa a7 d9 3e
       -0.16572988 0.80443144 -0.85598934 0.4251073
0000e0 81 a8 c8 3e 2d 6c 78 3f 3a 91 b5 be 26 ef 6f 3f
       0.39191058 0.97040063 -0.35462362 0.93724287
0000f0 f7 47 67 be ff e8 51 bf 76 e7 16 3f 17 9e 1d bf
       -0.22586046 -0.8199615 0.5894693 -0.6156935
000100 ba 6f 74 bf 80 07 0a 3e fb 50 2c 3c 6b 05 53 bf
       -0.9548298 0.13479424 0.010517354 -0.8243014
000110 2e 48 c8 3e bc 9e 63 be 13 f5 22 bc 58 97 08 3f
       0.3911757 -0.22228521 -0.009946126 0.5335593
000120 44 68 40 bf 80 92 58 3f c5 3b 1f 3f 44 36 f2 3d
       -0.75159097 0.8459854 0.62200576 0.118267566
000130 6e 48 4a 3e 1c 5d 6e 3c a0 7f 94 3e a1 f8 4e bf
       0.19754192 0.014548566 0.2900362 -0.8084813
000140 f9 fc b1 3e a5 e2 31 bf 3d 57 5b 3f 51 6a 02 3e
       0.34763315 -0.6948646 0.8567999 0.12735869
000150 15 2d dc 3d a8 ab 64 bf 81 b7 11 3e 80 14 d0 be
       0.10750786 -0.89324427 0.14230157 -0.4064064
000160 ca b5 7c bf 0c 66 62 3f 8f 15 c3 3e a4 7b c3 3e
       -0.9871489 0.8843696 0.38102385 0.38180268
000170 4c 28 f0 bd a7 cf 66 bf db 77 5c bf 46 bb 23 3f
       -0.11726436 -0.901606 -0.86120385 0.6395763
000180 f2 80 5e 3c 7c e4 03 3e b1 0f 20 3e 40 17 f5 3e
       0.013580548 0.12880129 0.15630986 0.478693
000190 07 1f fe 3e 46 60 dd 3e 78 58 3e bf 22 61 3c be
       0.49633047 0.43237513 -0.7435374 -0.18396428
0001a0 6a d0 37 3f a3 4b ef be 63 16 7b 3f 6f a8 79 3e
       0.7180239 -0.46737394 0.98081034 0.24380659
0001b0 4c ce 67 3f a0 ba 9e be 1d 5f 03 bf 76 6b 67 3f
       0.9054916 -0.3100176 -0.51317006 0.9039835
0001c0 00 19 fc 3e 58 7a 3a 3f 08 57 12 bf 3e 4c 22 bf
       0.49237823 0.7284293 -0.5716405 -0.63397586
0001d0 c4 fe 7c bf 3b 82 d3 3e 96 ef 09 3f 5f 1d 70 bf
       -0.9882624 0.41310295 0.53881204 -0.93794817
0001e0 4c f6 2f be a0 35 7d 3f d6 4f ea 3e 2b 12 14 bf
       -0.17183799 0.9890995 0.45764035 -0.5784022
0001f0 74 00 06 bf 65 f0 34 3f 0d a9 3a 3f f8 dc 64 3f
       -0.5234444 0.7067931 0.729142 0.8939967
000200 76 40 47 bf b0 9a 58 bf 78 25 92 3e f5 09 ff 3e
       -0.77832735 -0.84611034 0.2854421 0.49812284
000210 b8 8a 4a bf 79 b8 35 bf 3b d4 04 bf 04 89 74 bf
       -0.7911792 -0.7098461 -0.5188634 -0.9552157
000220 28 5e be 3e 5b 11 01 be d1 24 76 bf fd a5 97 be
       0.3718121 -0.12604277 -0.9614993 -0.29618827
000230 84 71 22 3d 3c b6 0a bf 0c 03 a2 bd aa 8a 6e bf
       0.03965904 -0.5418432 -0.079107374 -0.93180335
000240 fa 77 92 3e 17 7f 46 be 48 cf 56 bf 13 b3 4e 3f
       0.2860716 -0.19384418 -0.83910036 0.80741996
000250 8f 4c 54 3f 0c 7e 7c 3f 24 13 54 bf b6 5a 0a 3f
       0.8292932 0.9862983 -0.82841706 0.54044664
000260 2b 1c 68 bf 54 00 3f bf 4b 09 67 3f 0c 8b 10 bf
       -0.9066798 -0.74609876 0.90248555 -0.5646217
000270 67 e1 a5 be ec 25 cb 3e 28 ab 11 3f 6a 3d 56 3f
       -0.3239853 0.3967737 0.5690179 0.8368746
000280 b8 03 5b bf 5e 47 7a 3f 90 f7 03 3f 08 79 75 bf
       -0.8555255 0.9776515 0.51549625 -0.95887804
000290 7c f7 21 bf 67 80 ae 3d 2a d6 42 bf 59 97 23 3f
       -0.63268256 0.085205846 -0.7610804 0.63902813
0002a0 12 4c 06 3f 38 6c 77 bf a3 b3 15 3f d5 66 29 bd
       0.52459824 -0.96649504 0.5847723 -0.041357834
0002b0 92 8f 3b bf df 7e 08 bf 7b a5 84 be 07 af 07 3e
       -0.73265946 -0.5331859 -0.25907502 0.13250361
0002c0 67 37 ed 3e 4a db fe 3c 79 ff 01 be 28 73 db 3e
       0.4633133 0.031110425 -0.12695111 0.42861295
0002d0 d8 74 5c bf aa 0e 5d 3f 9d a5 3f 3d 18 6d 61 3e
       -0.8611579 0.863505 0.0467888 0.22014272
0002e0 7a 53 54 3f 12 fc ac be a9 70 0b 3d 63 f2 b1 bb
       0.82939875 -0.33786064 0.034042988 -0.005430506
0002f0 9f 14 60 3f bc c5 47 3d 19 6a 35 3d 61 ce 73 bf
       0.87531465 0.04877256 0.044290636 -0.95236784
000300 15 22 b8 be 33 0d 59 3f 59 66 2d bf 66 48 94 be
       -0.35963503 0.84785765 -0.67734295 -0.28961486
000310 f8 24 a0 bd 2e 84 dc 3e b0 cb 22 be 4d 51 e1 be
       -0.07819551 0.43069595 -0.15898013 -0.4400734
000320 86 72 49 bf d8 75 11 3f 7e f8 43 3e 9f 70 b2 3e
       -0.78690374 0.5682044 0.19137761 0.34851548
000330 55 d0 a8 be 95 7c 17 3e 8f 20 7f 3f a8 fd 5e bf
       -0.32971445 0.14793618 0.99659055 -0.871058
000340 dc 32 84 be be b9 30 bf 9b 9a 96 3e 15 1a 0b 3f
       -0.25820053 -0.6903342 0.2941483 0.54336673
000350 d6 1e f0 be 02 b4 8d 3d ab 02 7e bf 40 d1 40 3f
       -0.46898526 0.069190994 -0.9922282 0.7531929
000360 48 19 4b 3f f6 53 78 bf 64 af 4c 3e ff a4 58 bf
       0.7933545 -0.97003114 0.19988781 -0.84626764
000370 13 91 86 3e 77 58 0a bf 40 c1 e8 be 52 fc 5f bf
       0.26282558 -0.54041237 -0.45459938 -0.87494385
000380 ab 3c 63 3e 83 fe 43 3f 55 ab d8 be 26 ff e6 be
       0.22191112 0.7656023 -0.42318216 -0.45116538
000390 0e 66 73 bf d2 89 07 3f 72 17 a8 3e 10 9c b4 3e
       -0.950776 0.5294467 0.32830387 0.35275316
0003a0 56 e9 73 3d bf 4c 77 bf a2 4a e8 3e 6d c3 dd be
       0.0595487 -0.9660148 0.4536944 -0.4331316
0003b0 1c c5 69 bf 87 ee f1 be 70 19 6a 3e 92 81 a6 3e
       -0.9131639 -0.47252294 0.22861266 0.3252073
0003c0 7a e3 59 bf c1 ff 45 3f 8d 93 da be 34 67 e9 be
       -0.85112727 0.77343374 -0.42690697 -0.4558655
0003d0 1f ba 04 3f 7f 07 0e 3f 30 b7 51 bf 82 df b9 bd
       0.518465 0.5548019 -0.81920147 -0.09075834
0003e0 45 e6 44 3f f9 69 24 3f a2 cb 73 bf 92 fb bd be
       0.76913863 0.642242 -0.95232594 -0.37105995
0003f0 32 26 24 3f a5 aa d4 be 6c b6 d9 be 3b fe 3b 3f
       0.6412078 -0.4153644 -0.4252199 0.734348

param_1 f4 [256]
000000 f9 b7 87 31 4c 90 ce 30 eb 46 2d 31 39 dd 77 b1
       3.9499324e-09 1.5029484e-09 2.5215126e-09 -3.6068981e-09
000010 3b 88 94 b0 f9 98 b3 b0 a9 ba e7 30 4e e1 0b 31
       -1.0807136e-09 -1.3067442e-09 1.6860514e-09 2.0355233e-09
000020 a2 35 04 b0 88 cf f8 b0 95 88 6e b0 89 bf 0d b1
       -4.8097537e-10 -1.8103359e-09 -8.677799e-10 -2.0627076e-09
000030 67 68 2d 31 bc d4 35 b1 f8 0c 0a b0 2b 6f 42 31
       2.523416e-09 -2.6459892e-09 -5.022254e-10 2.8293907e-09
000040 01 62 59 b1 4e 8d 76 31 11 54 e0 2e 9c 06 a6 af
       -3.1633365e-09 3.5878034e-09 1.0201274e-10 -3.019992e-10
000050 ab da c0 2f a0 68 09 31 8b 33 51 30 0f 0e 47 b1
       3.507997e-10 1.9995596e-09 7.6107004e-10 -2.8966303e-09
000060 3b 85 32 b0 82 4f 2c 30 c7 59 3f 30 ca de b7 af
       -6.4945355e-10 6.2686223e-10 6.9612976e-10 -3.3445807e-10
000070 32 11 45 31 49 27 31 30 a9 2a 2a b0 9a 42 59 31
       2.8677047e-09 6.444805e-10 -6.1906263e-10 3.1615515e-09
000080 16 d1 45 af cc 4f 9a 31 4b d1 b7 b1 64 3d a2 31
       -1.7991328e-10 4.4910617e-09 -5.349795e-09 4.7218e-09
000090 53 8c f8 2f d6 da d6 2e 36 99 50 ae 8c be 53 30
       4.5210644e-10 9.7704664e-11 -4.7429803e-11 7.7032136e-10
0000a0 79 b1 09 b1 99 e4 87 31 90 1e f8 30 60 77 91 2d
       -2.0037005e-09 3.9550057e-09 1.8053061e-09 1.6537605e-11
0000b0 a5 69 f7 31 2d 7c 15 31 0c 05 6f b1 79 57 94 b1
       7.2006565e-09 2.175294e-09 -3.4781946e-09 -4.3173114e-09
0000c0 8b ab a3 b1 32 2c 91 30 64 1d 64 31 10 6a ea b0
       -4.7634265e-09 1.05627e-09 3.3195073e-09 -1.7055886e-09
0000d0 69 ef 11 31 cc f2 0f 31 3c f0 da 31 c4 45 de b1
       2.1236366e-09 2.0947253e-09 6.3719465e-09 -6.468982e-09
0000e0 48 79 b9 b1 a7 6c 0c 32 27 90 72 b1 69 26 7a 30
       -5.3979967e-09 8.173777e-09 -3.5297576e-09 9.1004054e-10
0000f0 0d 2e 59 b1 d7 a6 45 2f 79 d0 84 30 f5 7c b5 30
       -3.1603833e-09 1.7976319e-10 9.663516e-10 1.3204998e-09
000100 a3 d5 10 b0 4e c0 3d b1 d8 9e d2 b1 c7 54 0f 31
       -5.269049e-10 -2.7612432e-09 -6.129863e-09 2.085743e-09
000110 bb 29 10 b1 3c 3e f4 b0 85 8e ae 30 d5 7b 89 b1
       -2.097848e-09 -1.7771025e-09 1.2700673e-09 -4.001303e-09
000120 fc 6d 21 b1 5c f5 6a 30 f9 09 71 31 bd 54 98 2f
       -2.3491102e-09 8.547738e-10 3.5075784e-09 2.770885e-10
000130 31 ea 16 31 ea fb 54 b0 23 52 89 31 66 35 39 31
       2.1960995e-09 -7.748314e-10 3.9965626e-09 2.6951397e-09
000140 62 0c a2 b0 9a 22 a6 31 e2 e6 21 b1 e7 fe 55 b1
       -1.1790571e-09 4.8351696e-09 -2.3559825e-09 -3.1140475e-09
000150 e1 d8 6f 31 e2 ad 60 b0 f1 d5 70 31 85 d7 f5 31
       3.4902359e-09 -8.173783e-10 3.5046208e-09 7.15494e-09
000160 75 69 27 2e be 98 d9 30 db 89 98 ad 81 8d 04 b1
       3.806507e-11 1.583224e-09 -1.734162e-11 -1.9288964e-09
000170 04 b0 a7 2e c6 29 b0 b1 83 f0 64 31 5b 8e 96 31
       7.6255474e-11 -5.1270233e-09 3.3315082e-09 4.3817585e-09
000180 9c c4 ef b0 ac 12 ac 2f dd 47 24 2f d9 4b 78 31
       -1.7445418e-09 3.1299885e-10 1.4941244e-10 3.6131864e-09
000190 05 93 19 b1 c9 b6 04 b1 99 9e 32 30 7b 22 16 b0
       -2.2348001e-09 -1.931243e-09 6.4981404e-10 -5.461868e-10
0001a0 79 f5 67 31 1d 9d d2 af 86 b9 a0 2e eb 2a 67 b1
       3.375446e-09 -3.8310413e-10 7.308913e-11 -3.363932e-09
0001b0 e3 59 a3 b0 cc b2 0a 31 a1 b6 9f b0 db ea d4 b0
       -1.1885358e-09 2.0183277e-09 -1.1620679e-09 -1.549178e-09
0001c0 8b 6d 25 31 a5 1a f3 2f 2f b9 94 b1 71 9d 86 30
       2.4072928e-09 4.4220375e-10 -4.32842e-09 9.794531e-10
0001d0 ad 2e 3a 30 b0 c2 e4 ae 9d 36 39 b0 88 12 64 af
       6.7732736e-10 -1.0402823e-10 -6.738022e-10 -2.0743063e-10
0001e0 80 70 71 b0 d6 ba 9e 31 ae 44 95 2f a7 d1 81 31
       -8.783516e-10 4.619646e-09 2.7151742e-10 3.778229e-09
0001f0 99 ca f5 31 75 52 26 31 fe 86 a1 ae 63 e6 a2 b0
       7.153471e-09 2.420305e-09 -7.345412e-11 -1.1852531e-09
000200 86 06 3b b1 6c 5d 08 b1 96 9a bc 31 39 59 c5 af
       -2.721579e-09 -1.984371e-09 5.4890945e-09 -3.5897488e-10
000210 ae e7 9c b0 3a 38 13 30 eb b6 cc b1 3e f5 b1 b1
       -1.1416341e-09 5.355819e-10 -5.957977e-09 -5.179259e-09
000220 d5 5e c6 b0 33 26 da 30 46 28 1a b1 cb 6a e8 2f
       -1.4433349e-09 1.5872444e-09 -2.2432842e-09 4.2276435e-10
000230 04 59 93 31 30 5c 8d b0 d0 77 d2 ae 49 91 38 b1
       4.288383e-09 -1.0285301e-09 -9.570977e-11 -2.685811e-09
000240 03 b8 af 31 23 3b bb b0 9b 36 b8 b1 46 70 ef b0
       5.11409e-09 -1.3622848e-09 -5.3613127e-09 -1.7421449e-09
000250 f0 e2 53 b1 0a 99 55 b1 aa 61 00 b1 e2 ae b6 af
       -3.083354e-09 -3.1082572e-09 -1.8681967e-09 -3.322987e-10
000260 91 4c 71 b0 f2 82 7f b1 ac 7c 9d b1 1e a1 93 b0
       -8.7784097e-10 -3.7181818e-09 -4.583475e-09 -1.074145e-09
000270 0b 8f be b0 11 27 ad 31 94 e8 51 b0 4f 82 e5 31
       -1.3864975e-09 5.039404e-09 -7.636427e-10 6.6795915e-09
000280 11 3f d9 b0 25 57 fd 30 03 54 eb 30 38 4d 65 b0
       -1.5806753e-09 1.8432941e-09 1.7122378e-09 -8.341945e-10
000290 0f 04 70 b0 6e 05 2a 31 ab 86 c5 31 2b 05 6f 30
       -8.731726e-10 2.4741342e-09 5.7487646e-09 8.695504e-10
0002a0 27 b9 51 31 e4 a8 63 b0 6c ac c1 30 70 37 c2 2f
       3.051875e-09 -8.2822127e-10 1.4091603e-09 3.5327785e-10
0002b0 e6 54 93 31 6e 51 5c 2f 5c 61 8d ae d7 02 1b 30
       4.287915e-09 2.0037813e-10 -6.429232e-11 5.6392707e-10
0002c0 32 e9 39 2f 1d e0 8c 30 59 78 b4 30 93 de b8 b0
       1.69085e-10 1.0250037e-09 1.3130929e-09 -1.3451021e-09
0002d0 12 2c 4a b1 91 92 09 31 74 77 23 b0 5d 78 48 b1
       -2.941992e-09 2.0019437e-09 -5.946881e-10 -2.917225e-09
0002e0 fb 6d db 31 cb eb 18 af c8 7e fb 2f 80 d4 0c b1
       6.386242e-09 -1.390809e-10 4.5746718e-10 -2.0493474e-09
0002f0 1b 48 9f b1 7a 39 12 b2 99 20 f2 30 6c 90 94 b1
       -4.6357065e-09 -8.511387e-09 1.7617082e-09 -4.3237858e-09
000300 62 7b dc af aa bd d5 af 43 de bb ae 0b 5d 6c ae
       -4.0105436e-10 -3.887924e-10 -8.543257e-11 -5.3742826e-11
000310 df 2b 30 b0 97 83 9b 31 3e 94 01 b0 e8 b0 3f 31
       -6.409077e-10 4.5260538e-09 -4.714059e-10 2.7894718e-09
000320 cc c3 64 b0 ad a6 cc 31 13 e9 95 30 62 56 5a 31
       -8.322416e-10 5.9561303e-09 1.090742e-09 3.1772278e-09
000330 62 b6 91 b1 a9 f1 97 31 28 f8 9c b1 f4 1c 76 30
       -4.24079e-09 4.422152e-09 -4.5684097e-09 8.9535424e-10
000340 38 b3 33 31 ee cc 9e b0 63 39 f6 2f 5a 50 c0 30
       2.6149802e-09 -1.1554258e-09 4.4787915e-10 1.3992676e-09
000350 a0 63 05 32 ce f0 99 30 be 4f 96 b0 3f 0a be 2f
       7.764271e-09 1.1200656e-09 -1.09366e-09 3.456808e-10
000360 0f 9b f6 af 9d 72 66 31 3c d0 d6 31 f5 f5 4b 2d
       -4.4857315e-10 3.3534555e-09 6.2518932e-09 1.15938275e-11
000370 58 71 78 2e 1c ea d9 af 44 73 54 30 23 58 eb ae
       5.648934e-11 -3.9638415e-10 7.7288953e-10 -1.0702219e-10
000380 74 1e 4a 32 d0 8d 35 b1 ad f6 93 31 a5 ca 72 b0
       1.1764872e-08 -2.6419578e-09 4.306307e-09 -8.832706e-10
000390 63 d6 cf 31 57 8e 98 b0 da 42 a3 31 12 9c fd b0
       6.048866e-09 -1.1099911e-09 4.7515245e-09 -1.8452531e-09
0003a0 ca 7e 5b 30 66 f7 33 31 dd ae 11 31 a5 a8 82 2d
       7.9851914e-10 2.6188558e-09 2.1199675e-09 1.4854182e-11
0003b0 ce 90 31 b1 bb 21 c7 b0 90 09 0e b1 9c c8 2f 31
       -2.5839202e-09 -1.4488742e-09 -2.0669155e-09 2.5579885e-09
0003c0 ac b0 18 30 10 3c 3d b0 a8 e6 7c b0 91 4b 3e 31
       5.5548344e-10 -6.8843153e-10 -9.200485e-10 2.7691593e-09
0003d0 de 26 ca 30 81 2d bd 2f 8d fe d1 b0 bc 34 dd 30
       1.4708481e-09 3.4411232e-10 -1.5279099e-09 1.6094854e-09
0003e0 7a ee 7f 30 90 1b 12 2f 08 fb 0a 32 0f 3b 93 b0
       9.3107355e-10 1.3288415e-10 8.089735e-09 -1.0712443e-09
0003f0 e1 91 2e af f6 77 c8 31 8d a8 4f 31 96 53 8b 30
       -1.5877034e-10 5.834404e-09 3.0218275e-09 1.0137338e-09

param_2 f4 [256]
000000 d0 a1 31 3f d9 49 f9 3e 7c 37 83 3f 8d 9b 18 3f
       0.6938753 0.48689154 1.0251307 0.5961235
000010 7a 19 56 3f 2d 39 2f 3f e6 27 34 3f 2a 71 29 3f
       0.83632624 0.6844662 0.7037338 0.661883
000020 62 72 91 3f 78 ea 3b 3f 17 2a 96 3f 30 19 90 3f
       1.1363032 0.73404646 1.1731595 1.1257687
000030 5f fc 35 3f 7b f5 ab 3f cc 60 2d 3f 46 1a 36 3f
       0.7108821 1.343429 0.67725825 0.7113384
000040 00 0b 85 3f 86 06 8e 3f 4c a7 80 3f 65 75 70 3f
       1.0393982 1.1095741 1.0051055 0.9392913
000050 74 df 2b 3f 55 f0 2e 3f cb 30 7b 3f 6a f9 3c 3f
       0.6713784 0.6833547 0.9812133 0.73818076
000060 e5 27 51 3f 52 2a 3a 3f e9 1e 14 3f 8c 06 8b 3f
       0.817015 0.72720826 0.57859665 1.0861373
000070 74 76 6f 3f af d4 93 3f 17 0f 65 3f 4f f7 9a 3f
       0.9354012 1.1549281 0.8947615 1.2106723
000080 d8 eb 68 3f 43 58 a2 3f f4 ca 8f 3f be 4f 9f 3f
       0.9098487 1.2683185 1.1233811 1.244621
000090 3c aa 62 3f 73 f8 11 3f e6 33 48 3f c6 d4 8a 3f
       0.8854101 0.5701973 0.7820419 1.0846183
0000a0 c9 2d 4f 3f 98 0a 06 3f 8d 04 d3 3f c2 ea 7f 3f
       0.8092924 0.52359915 1.6485764 0.99967587
0000b0 1f 50 ad 3f 9a db 87 3f bd a5 8b 3f 45 3c b9 3f
       1.3540076 1.0613892 1.0909954 1.4471518
0000c0 91 9f 87 3f 5f 8b 8e 3f 66 56 62 3f 4c 68 87 3f
       1.0595571 1.1136283 0.88413084 1.0578704
0000d0 41 c1 b0 3f 5a 3f 66 3f e4 a1 8e 3f a6 55 bc 3f
       1.3808976 0.89940417 1.1143155 1.4713638
0000e0 03 6b 9f 3f 78 2a 82 3f 36 5e 8d 3f e1 51 ae 3f
       1.2454532 1.016921 1.1044376 1.3618737
0000f0 9c fe 35 3f d5 33 37 3f 7e 48 2c 3f f1 03 1d 3f
       0.7109163 0.71563464 0.67298114 0.6133414
000100 e9 97 4e 3f 1e da 97 3f 3a 44 9a 3f 77 25 a5 3f
       0.80700547 1.1863439 1.2052071 1.2902058
000110 7a bf 84 3f d9 9e 72 3f e2 39 16 3f eb 27 95 3f
       1.0370934 0.9477363 0.5868207 1.1652807
000120 6f 05 52 3f c8 8c 90 3f d2 88 63 3f bc e1 65 3f
       0.8203954 1.1292963 0.88880646 0.8979757
000130 de 8f 8d 3f 91 f7 97 3f 82 53 02 3f 98 05 00 3f
       1.105953 1.1872426 0.5090867 0.50008535
000140 7d bc 33 3f 71 35 af 3f fc f9 5e 3f fa 60 6b 3f
       0.70209485 1.3688184 0.87100196 0.9194485
000150 1d a7 39 3f f1 98 60 3f d4 01 8f 3f 7b cb 7e 3f
       0.7252062 0.8773337 1.1172433 0.99529237
000160 fa 48 36 3f f5 df 9f 3f 94 53 78 3f 21 f6 25 3f
       0.71205103 1.2490221 0.9700253 0.6482869
000170 ae 15 2b 3f 1d 1f 8a 3f ae 0b 99 3f 9b 37 9a 3f
       0.66829956 1.0790745 1.1956689 1.204822
000180 b6 42 a4 3f 83 09 8a 3f af c5 2b 3f 8f 29 4d 3f
       1.2832859 1.0784153 0.67098516 0.8014154
000190 32 f3 2e 3f 22 3d 61 3f 81 89 51 3f 0f 0c 6d 3f
       0.68339837 0.87983906 0.8185044 0.92596525
0001a0 27 e0 38 3f 21 56 cf 3e 4c d5 27 3f 3c dd 9b 3f
       0.7221703 0.404954 0.6555984 1.217689
0001b0 15 ff 5d 3f 4c 5c 1c 3f 4a ea 5e 3f a4 1e 00 3f
       0.8671735 0.61078334 0.87076247 0.50046754
0001c0 2d de 66 3f e1 a4 75 3f 7f 1b a5 3f fd 95 0e 3f
       0.90182763 0.9595471 1.2899016 0.55697614
0001d0 78 e1 4d 3f 07 4b 75 3f a5 05 a1 3f e7 a4 80 3f
       0.80422163 0.9581761 1.2579848 1.0050324
0001e0 4d b0 60 3f e5 e2 46 3f 1f 8c b4 3f 66 7d 5b 3f
       0.87769014 0.77689964 1.4105262 0.8573822
0001f0 0e 89 80 3f ed 06 1c 3f d6 7a 41 3f 86 0a 2a 3f
       1.0041826 0.6094807 0.7557806 0.6642231
000200 bd ca 9c 3f 58 25 a0 3f 44 f8 2d 3f 7e ad 74 3f
       1.2249371 1.2511396 0.6795695 0.9557723
000210 92 d7 ac 3f 63 6c 50 3f fc c3 ac 3f 33 68 92 3f
       1.3503287 0.81415385 1.349731 1.1438049
000220 df 10 66 3f 5f e0 99 3f 62 da 1f 3f 26 98 8c 3f
       0.89869493 1.2021598 0.624426 1.0983932
000230 76 e4 82 3f d2 24 7d 3f f9 81 2e 3f e0 61 89 3f
       1.0225971 0.9888431 0.6816707 1.0732994
000240 b2 cf 94 3f 9f a5 0a 3f fc 20 78 3f 19 68 6b 3f
       1.1625884 0.5415897 0.9692533 0.91955715
000250 9a 16 16 3f 60 5a 7e 3f ca 98 a0 3f 3a 9c 42 3f
       0.5862824 0.9935665 1.2546628 0.7601963
000260 05 93 34 3f 3b 06 52 3f 09 90 9a 3f 29 48 90 3f
       0.70536834 0.82040757 1.2075206 1.1272022
000270 d3 be da 3e 63 3c 8d 3f 56 f1 91 3f 83 1b 9c 3f
       0.42723712 1.1034054 1.1401775 1.2195896
000280 39 56 8e 3f 54 b0 6e 3f e8 f2 8f 3f 8b e6 8d 3f
       1.1120063 0.93237805 1.1246004 1.1085981
000290 14 9b 68 3f 2b 12 4a 3f 4c 41 8f 3f b0 31 63 3f
       0.9086163 0.7893397 1.1191802 0.8874769
0002a0 10 d5 8f 3f a2 6c 98 3f b5 aa e5 3e c9 f6 79 3f
       1.1236897 1.1908152 0.44856802 0.9764219
0002b0 72 ed b4 3f 4e fe 8c 3f ed 2d 91 3f f4 b7 94 3f
       1.4134963 1.1015108 1.134214 1.1618638
0002c0 ff 9b ad 3f aa 26 33 3f 3c b7 79 3f d1 f6 74 3f
       1.3563231 0.6998087 0.9754522 0.9568911
0002d0 e7 0d 87 3f 56 4d 72 3f 44 0a 5e 3f 8f 87 9a 3f
       1.0551118 0.94649255 0.86734414 1.2072619
0002e0 ab 7f 7a 3f fe 57 b7 3f 6b c3 98 3f eb 43 11 3f
       0.97851056 1.4323728 1.1934637 0.5674426
0002f0 74 a7 80 3f b0 1d 96 3f 22 8a 85 3f fb 8c 8d 3f
       1.0051103 1.172781 1.043278 1.1058649
000300 60 65 8d 3f 4a eb 24 3f 50 90 23 3f d5 ea 88 3f
       1.1046562 0.6442152 0.6389208 1.0696665
000310 7b 3d 97 3f ec 4e 81 3f a0 05 a8 3f 11 5e 10 3f
       1.1815637 1.010221 1.3126717 0.56393534
000320 05 d1 26 3f c1 37 8d 3f 71 9c 31 3f 1c 09 36 3f
       0.6516269 1.103264 0.69379336 0.7110765
000330 42 c1 92 3f 54 e0 aa 3f fe 48 9d 3f e0 0a 1b 3f
       1.1465228 1.334971 1.22879 0.6056347
000340 10 11 56 3f 84 9c 8c 3f d2 0b 0d 3f 1b dd 3c 3f
       0.83619785 1.0985265 0.5509616 0.7377488
000350 fc 73 82 3f 95 31 04 3f a3 3f 30 3f fa db e9 3e
       1.0191646 0.51638156 0.688471 0.4567564
000360 b0 be 2e 3f 48 4f d9 3e ae 6f 70 3f 2e d0 b8 3e
       0.68259716 0.424433 0.9392041 0.36096328
000370 ed b8 69 3f 8e 24 ac 3f 57 90 51 3f 99 ff 89 3f
       0.912978 1.3448656 0.8186087 1.0781127
000380 b4 95 96 3f b5 39 94 3f 27 4d 67 3f 26 42 84 3f
       1.1764436 1.1580111 0.903521 1.0332687
000390 62 df 40 3f 9d f7 41 3f 6a 6d 60 3f 98 f7 2e 3f
       0.75340855 0.7576845 0.8766695 0.6834655
0003a0 d4 01 88 3f 3b 6a 86 3f 2c aa 9f 3f 72 ae 33 3f
       1.0625558 1.0501169 1.2473807 0.7018806
0003b0 8f d4 9a 3f 6a 84 94 3f d9 d7 3c 3f ef 22 69 3f
       1.2096118 1.160291 0.7376686 0.9106893
0003c0 30 62 76 3f 5f e1 aa 3f 07 31 84 3f d3 f9 43 3f
       0.9624357 1.3350028 1.0327462 0.76553077
0003d0 51 5d 1e 3f bc e3 61 3f e5 94 83 3f 3d 92 5c 3f
       0.6186114 0.8823812 1.0279814 0.8616064
0003e0 1a b1 65 3f 99 e8 1f 3f 1f ea 2d 3f 1c 1d 98 3f
       0.8972336 0.6246429 0.67935365 1.1883883
0003f0 85 a7 3c 3f d3 7a 8e 3f b1 eb 64 3f 8b aa 12 3f
       0.73693115 1.1131233 0.89422137 0.5729148

param_3 f4 [256]
000000 aa 1f f4 3e df a5 6e bd 1f 80 66 3e 32 c1 c8 be
       0.47680408 -0.058263656 0.22509812 -0.39209896
000010 87 f2 3e 3e ed bd 9d bd 26 43 59 be 61 7e 81 3c
       0.18647204 -0.07702241 -0.21217021 0.015807332
000020 a0 65 a1 3d ce 7d 31 3e ec d2 36 3e be d1 c7 3e
       0.078807116 0.17333147 0.17853898 0.39027208
000030 57 90 fa 3d 7a 3f b8 3e c5 f0 96 3e 15 55 9b bb
       0.12234562 0.3598593 0.29480568 -0.004740367
000040 ef a5 3f 3e 46 4a 2b be e4 76 46 3e 5e fd 79 3d
       0.18715642 -0.16727552 0.1938129 0.061032645
000050 e9 80 5f be e8 ec 6e 3e 72 1b 80 3e ba a1 7d be
       -0.21826519 0.2333256 0.2502094 -0.24768725
000060 5b e4 c4 3d a4 47 4a be f1 00 c1 be fb be 31 3e
       0.09613868 -0.19753891 -0.3769603 0.1735801
000070 4f 4c fa 3d 7a 45 f4 3d 7d a9 c4 3d d7 8c 92 3e
       0.12221586 0.11927314 0.0960264 0.28623077
000080 3b 3a 9b bd b1 70 fa 3d d1 1d 0b 3e f7 8b f4 3c
       -0.07579466 0.122285254 0.13585593 0.029851897
000090 7f b8 11 bd b2 03 90 bb 81 f5 ad bd 0d 47 2f bd
       -0.03557634 -0.0043949718 -0.08494092 -0.04279237
0000a0 73 8e bf 3b 81 af 45 bd 94 d8 c5 3e f8 83 65 3d
       0.0058458387 -0.048263077 0.38641798 0.05603406
0000b0 16 78 f9 3e e6 c2 09 3d cc da b6 3e aa 0e 70 3e
       0.4872443 0.033633135 0.35713804 0.23443094
0000c0 d3 78 7c bd 07 c1 8c 3e d5 23 74 3e b4 0a d8 3c
       -0.061638664 0.27491018 0.23841794 0.026372291
0000d0 ea 12 2b 3e 6f 10 2c bd 09 fc a9 3d da d9 96 3d
       0.16706434 -0.04200786 0.08300025 0.07365771
0000e0 84 c2 d0 bd 02 4b 9a bd 2e ee 2f 3e e3 75 12 3f
       -0.10193351 -0.07533838 0.17180702 0.5721113
0000f0 85 b2 9b be ad ef 49 be 90 25 c4 be 40 fe 82 be
       -0.30409637 -0.19720335 -0.38309908 -0.25584602
000100 d2 3f 52 3e a5 7a b7 3e 60 1f 10 3f 21 42 99 3d
       0.20532158 0.35835758 0.56297874 0.07483316
000110 dd 47 93 3d 6e 5d b7 3e 1c 1f 32 be f4 cc 51 3e
       0.07191441 0.3581347 -0.1739468 0.2048834
000120 8a 8a fe 3d f4 07 53 3e 01 9a ea bd 7f 8c 43 bd
       0.12428768 0.20608503 -0.11455155 -0.04774141
000130 5e d8 ac be 6e 7d 68 3e 6c 94 f8 bd fc 09 bc be
       -0.33758825 0.22704098 -0.12137684 -0.36726367
000140 4e 4b 7d 3d dd 62 ee 3e 27 46 0c 3e d4 ed 37 3e
       0.061839394 0.46559802 0.13698636 0.17961818
000150 f6 65 6e be ba 45 da 3d af f1 7b 3e 72 21 a7 3e
       -0.23281083 0.106578305 0.24603914 0.32642704
000160 a2 cb 91 bd bf c8 24 3f 8d 33 e1 3e 69 9f 60 be
       -0.07118918 0.64368814 0.43984643 -0.2193581
000170 63 c9 aa bd 3a 38 eb 3e 06 d4 ed 3e 6a ac 88 3e
       -0.08339193 0.45941335 0.46450824 0.26694041
000180 e4 c0 46 3f f1 0b 88 bb 53 da 2b be a6 df 23 3d
       0.7763808 -0.004151814 -0.16782503 0.04000821
000190 ad 46 00 be b0 e6 97 3e 62 dc ab bd f7 8d 2c 3e
       -0.1252696 0.29668188 -0.08391644 0.1685103
0001a0 c7 05 c9 3e de 26 8e be 26 50 25 be 0e 99 30 3e
       0.3926222 -0.27764028 -0.16143855 0.17245886
0001b0 b6 b7 49 bd 6a 62 54 3d be e0 dd 3d 28 5f 58 3e
       -0.049247466 0.051851667 0.10833882 0.21130049
0001c0 5c a5 81 3e c8 ee cf 3e 18 d1 41 3e 6c e8 60 be
       0.25321472 0.40611863 0.18927419 -0.21963662
0001d0 08 64 43 bd 78 33 ca bd 57 96 b5 3e 6a 28 4b 3e
       -0.04770282 -0.09873098 0.35466263 0.19839635
0001e0 09 ff ff 3e a1 61 01 3d bb 01 b9 3c 4e ea ff bd
       0.49999264 0.031587247 0.022583833 -0.12495862
0001f0 65 aa 34 3f 38 06 8c be bf 9a 45 be fd 40 86 be
       0.705725 -0.27348495 -0.19297312 -0.26221457
000200 cf 7d 7c 3e de 37 1d 3e ac bf 1b be 61 64 69 be
       0.24657367 0.15353343 -0.15209836 -0.22792198
000210 7e b7 41 bb cc 5e 49 bc bd 56 39 3e ec 66 d7 3e
       -0.0029558833 -0.012290668 0.18099494 0.4207071
000220 a0 01 22 3e c9 68 52 3d 85 81 bf bd 70 cc 3d be
       0.15820932 0.051369462 -0.09350876 -0.18535018
000230 26 a6 fa 3e 11 72 12 3e af f4 8f be 65 da 67 3e
       0.48954886 0.14301325 -0.28116366 0.22641905
000240 81 1a ec 3e fd da ef be 2a e0 95 3e d5 36 00 3f
       0.4611397 -0.46846762 0.29272586 0.5008367
000250 2e 1e 2d 3d 2e 65 57 3e 0d 78 14 3e f5 5d 12 bd
       0.04226511 0.2103469 0.1449892 -0.035734136
000260 9c c5 62 be cc b5 b8 bd 6c ea 4c 3f b6 98 94 3d
       -0.22145694 -0.0901905 0.800452 0.0725569
000270 e2 ae af be 44 cb 73 3b ea 94 7a be 9a 16 55 3e
       -0.34313112 0.0037200013 -0.24470869 0.20809403
000280 5f f9 96 3d 34 98 01 be f9 89 ed bd a4 7e c6 3e
       0.073717825 -0.12655717 -0.11598582 0.38768494
000290 01 fc b2 3a 19 b8 d7 3d 28 96 25 3e aa fa 49 be
       0.0013655425 0.10533161 0.16170561 -0.19724527
0002a0 61 6c c7 3c ae 2a 07 3e 08 ba 8d 3d 94 7c a1 3d
       0.024343671 0.13199875 0.06920248 0.078850895
0002b0 de d1 5d 3e c2 78 ea bc 83 40 c9 3d d5 c4 1d 3e
       0.21662089 -0.028622035 0.09826758 0.15407117
0002c0 52 96 9e 3e 87 d1 82 be a4 87 d9 3d 8d cd 9c be
       0.3097406 -0.25550482 0.106215745 -0.30625573
0002d0 ac 3e 85 3d 29 6d 46 bd dd d7 17 bd c6 2e 84 3e
       0.06506094 -0.048443947 -0.037071098 0.25816935
0002e0 1d 9f 0a 3d 63 f2 2a 3e 53 02 85 3e 18 9e 62 be
       0.03384315 0.16694026 0.25978336 -0.2213062
0002f0 ea dd b4 3d 6a 42 9c 3e 9c d1 9f bc 88 f0 78 3e
       0.08831389 0.3051942 -0.01950913 0.24310505
000300 c7 3a 0b be d2 fb 95 bc 4d 88 14 be a9 bd 8f bb
       -0.1359664 -0.018308554 -0.1450512 -0.004386623
000310 b3 4c d1 bd 8a 5e 97 3e ea b5 3b 3e 79 87 78 be
       -0.10219707 0.29564315 0.18331113 -0.24270429
000320 f4 1f d4 3e ca ca d2 3e 39 11 9d 3b f1 cd 6c be
       0.41430628 0.4117034 0.004793313 -0.23125435
000330 98 2e 90 3e a2 90 76 3e a8 53 f5 3e 4c a5 25 bd
       0.28160548 0.2407861 0.47915387 -0.040440843
000340 54 64 9a 3e 47 31 c7 3d 8b b8 bb be ad 5f 87 3d
       0.3015467 0.09726196 -0.36664233 0.066100456
000350 75 a2 0b 3f 95 c2 ce be 76 46 6e be c1 df 9f bc
       0.54544765 -0.4038283 -0.23269066 -0.019515874
000360 46 52 c2 3d e6 6c 05 be de 24 ac bd e9 a2 e8 be
       0.09488349 -0.13029823 -0.08405469 -0.4543679
000370 83 85 c4 3b 64 fe ab 3d 8e 09 0a be 96 94 15 3c
       0.005997361 0.083981305 -0.13480207 0.009129664
000380 00 b1 2a 3d 78 81 3a 3e 5c fa f7 3e f5 25 9f 3c
       0.041672707 0.18213451 0.48433197 0.019427279
000390 49 28 11 be e8 79 77 bd 04 29 86 3e 3c 7f ea bc
       -0.14175524 -0.060418993 0.26203167 -0.028625123
0003a0 5e 11 a1 3c 0d 9d de 3e 88 55 c1 3e c5 72 15 3f
       0.019661602 0.43479195 0.37760568 0.5837825
0003b0 1e 4c 1a be be 2e cc 3d 71 6a c8 3e 9b cc 88 3d
       -0.15068099 0.09969853 0.39143708 0.066796504
0003c0 22 b4 2a 3d f9 73 3c 3b ca 65 df 3d 02 0d 33 be
       0.041675694 0.0028755649 0.109080866 -0.17485431
0003d0 8a 5b 79 be 8a a8 89 3e 56 75 a3 3d 0e a5 f2 bd
       -0.24351326 0.26886398 0.079813644 -0.11847888
0003e0 a2 ed 07 bb 2a 29 99 be b4 f9 cf 3e 90 f2 aa 3e
       -0.0020741005 -0.29914218 0.40620196 0.33388186
0003f0 2e 29 c0 3e 2c 3d 1c bd ff 17 4e be a2 c3 d1 bc
       0.37531418 -0.038144276 -0.20126341 -0.02560598

param_4 f4 [256, 128]
000000 ef 91 0e be 47 ef 11 bf 26 d0 ad 3e f2 e6 94 be
       -0.13922857 -0.57005733 0.33947867 -0.29082447
000010 68 54 eb be 29 21 08 3f f7 73 26 3e 3e c1 9d 3b
       -0.45962834 0.531756 0.16255175 0.004814296
000020 00 9d 03 3f a5 24 ae be 1a 87 58 3f da a7 c5 be
       0.5141144 -0.34012333 0.8458115 -0.38604623
000030 f6 eb c5 be 8d 81 75 bf 7d 06 38 3f cf f0 58 bf
       -0.38656586 -0.95900804 0.718849 -0.84742445
000040 19 54 6d bf 4c 89 29 be 06 e6 0f bf a6 0a 0f 3f
       -0.9270645 -0.16556281 -0.5621036 0.55875623
000050 2c c1 43 3f 69 d5 36 3f 7b c6 51 3f c0 45 76 3f
       0.7646663 0.7141939 0.8194348 0.9620018
000060 3a 72 96 3e a0 f1 f6 3e 6c 2b 5b bf 9b c0 3a 3f
       0.29384023 0.4823122 -0.8561313 0.7295014
000070 12 e5 1d 3f a7 1e b3 3e 38 c6 3d 3f 75 71 96 be
       0.6167766 0.34984323 0.7413058 -0.29383436
000080 34 b4 57 bf 83 83 20 3f 3c e4 43 3f 01 37 2b bf
       -0.84259343 0.6270067 0.76520133 -0.66880804
000090 49 a5 ed 3e 58 57 79 bf 31 81 05 3f 98 6e a0 be
       0.46415165 -0.973989 0.52150255 -0.31334376
0000a0 bb 26 4b be 06 8a 94 3e bc 80 d5 be 68 f4 c6 bd
       -0.19838993 0.29011554 -0.4169978 -0.097145855
0000b0 95 24 1e 3e ea eb 0b be b0 60 ca 3d ab fd d5 be
       0.15443642 -0.13664213 0.09881723 -0.41795096
0000c0 40 5d 03 bf 8c 67 13 3f 43 12 45 3f b4 c9 d7 be
       -0.51314163 0.57579875 0.7698099 -0.42146075
0000d0 e1 f8 23 bf 4d 65 21 bf 47 26 e0 3d 52 21 5e bf
       -0.64051634 -0.630452 0.10944801 -0.8676959
0000e0 56 dc 94 be 28 f4 e5 3c e4 af 60 3f fd bc 19 be
       -0.29074353 0.028070524 0.8776839 -0.150135
0000f0 cf 70 c6 be f3 64 78 3f 1f 71 f7 3e be a5 9b be
       -0.3875794 0.97029036 0.48328492 -0.3039989
000100 76 dc 6a bf 35 42 f1 be d8 d1 9a be ba 59 72 bf
       -0.91742647 -0.47120824 -0.30238223 -0.9466816
000110 a2 13 6b bf b5 a5 45 3f 11 57 2c 3e 66 37 7b 3f
       -0.9182683 0.77205974 0.16830088 0.98131406
000120 c5 ef a4 3c 52 25 5a 3f a5 15 0b 3d 99 67 f0 b9
       0.020133862 0.85213196 0.03395619 -0.00045853553
000130 6d 94 69 3f 01 f5 dd 3e 86 2a 77 bf a1 be 10 3f
       0.91242105 0.43350986 -0.9654926 0.56540877
000140 a1 07 6a 3e bf a9 af be e5 fb 42 3e 20 83 bf bd
       0.22854473 -0.34309193 0.19041403 -0.09351182
000150 f4 6c 79 3f 5e b6 10 bf de 40 51 bf 71 1d 45 bf
       0.97431874 -0.5652827 -0.81739604 -0.7699805
000160 c6 5b e0 3e 49 99 21 3f 2a da 27 bf 57 6a 52 bf
       0.43820018 0.6312452 -0.65567267 -0.8219351
000170 ba 41 39 3f 3a 4e da be 54 bc 80 3f 32 26 0d 3f
       0.72365916 -0.42637807 1.0057473 0.55136406
000180 70 55 43 3e cf 9c 0f 3f 4e db 20 3f a0 bb 11 3f
       0.1907556 0.56098646 0.6283463 0.5692692
000190 3d f7 76 be b3 22 cb 3e 9b c3 38 3f 24 83 e3 be
       -0.24117751 0.3967491 0.7217347 -0.4443599
0001a0 c1 38 6f bf bb ac 0b be 9a 0b 4d 3f 24 c4 87 bf
       -0.93445975 -0.1364011 0.8009583 -1.0606732
0001b0 18 0b 7e 3f 1b ac 26 3e 06 ad 03 3e 49 7b 2e bf
       0.9923568 0.1627659 0.12858972 -0.6815687
0001c0 99 5d cd 3e d4 a8 33 bf 27 12 08 bf ed ed 3a 3f
       0.40110472 -0.70179486 -0.531527 0.73019296
0001d0 d3 56 6f bf 1b ec 0c 3e 5a 62 29 3d ba c7 32 3f
       -0.9349186 0.13761942 0.04135356 0.6983601
0001e0 b3 2b 04 bf 32 83 cd be 12 d0 40 3e 50 26 bb bd
       -0.5162918 -0.40139157 0.18829373 -0.09138167
0001f0 0f 04 39 3f b7 a8 1f 3d 30 e0 14 bf 9f 55 24 bf
       0.7227182 0.03897926 -0.5815458 -0.6419315
000200 bc c0 02 bf 3b c1 44 3f e2 3b 17 3f 74 b3 5f 3e
       -0.5107534 0.76857346 0.5907575 0.218458
000210 c5 93 be be c0 f9 44 bd 13 9b 1e bf 61 35 30 bf
       -0.37222114 -0.048089743 -0.61955374 -0.6883145
000220 d2 52 53 3f d2 d7 c6 3e 4b 41 05 bf 5e e5 3c 3f
       0.8254825 0.38836533 -0.52052754 0.73787487
000230 72 d5 37 3e 5b 16 03 bf bb 1b 34 3f f8 79 d4 3e
       0.17952517 -0.51205987 0.70354813 0.41499305
000240 d7 69 53 3c 53 d3 47 3f ca 63 57 3f 63 b8 48 bf
       0.012903652 0.7805683 0.8413664 -0.7840635
000250 d8 f1 14 bf 31 79 ed 3e e2 64 62 bf 1d c9 02 3f
       -0.58181524 0.46381524 -0.88435185 0.51088125
000260 54 f2 c8 3e 42 8d 3c 3f e5 1d ba 3e 9d 89 68 3f
       0.39247382 0.7365304 0.36350933 0.9083498
000270 7b 7d f5 be 36 57 0b 3f e4 0d 82 3f 40 ea d4 be
       -0.47947297 0.5442995 1.0160489 -0.4158497
000280 a0 71 67 bf 76 e4 a6 be 48 16 22 3f 35 6f 0c bf
       -0.90407753 -0.32596177 0.6331525 -0.5485719
000290 67 b1 54 be 2e c0 cd bd 49 ca 78 bf 19 36 23 bf
       -0.20770799 -0.10046421 -0.9718366 -0.6375442
0002a0 81 af 69 3f cd 43 01 bf 1e 7d a7 bd 20 19 1a bf
       0.9128342 -0.5049408 -0.08178161 -0.6019459
0002b0 71 44 c3 be 0c 8c b7 3e 4e 89 26 3f 73 9f 77 bf
       -0.38138154 0.35849035 0.6505326 -0.96727675
0002c0 8c 08 61 3f 8f ab 54 3f fd 35 a3 be b3 60 0c 3f
       0.87903666 0.8307428 -0.31877127 0.5483505
0002d0 21 31 c2 be cd 35 0f 3f 63 bc a8 be c0 f5 37 be
       -0.37928107 0.5594147 -0.32956228 -0.1796484
0002e0 a4 7e f5 be de ea b9 3b bf 1e 2e 3f 81 f5 33 bf
       -0.47948182 0.0056737503 0.68015665 -0.70296484
0002f0 b4 75 a6 be dd 8d 6b 3f 92 f7 0b 3f 3b e7 40 bf
       -0.32511675 0.9201334 0.5467464 -0.7535283
000300 06 25 09 3e 0d 1d 04 3d ce f4 74 3e fc 6d 0a be
       0.1339303 0.032254267 0.2392151 -0.13518518
000310 51 74 2c 3e 97 b1 3b 3f 34 f2 62 3f bd 89 8b 3e
       0.16841246 0.73317856 0.8865082 0.27253523
000320 c3 7d 8a bc 94 bb 5e 3f 22 27 5c bf b2 99 03 be
       -0.016905671 0.8700497 -0.8599721 -0.12851599
000330 70 1b 02 3f 63 5a 6d 3f 82 aa 5a be d6 a0 64 3d
       0.50823116 0.92716044 -0.21354106 0.055817448
000340 34 47 43 bf eb 64 4f 3f 2d 88 25 3f 59 09 07 bc
       -0.7628052 0.81013364 0.6466091 -0.008241975
000350 d9 bc 27 3f c1 6f 94 3e 0c 27 d7 3e de 28 47 bf
       0.65522534 0.2899151 0.42021978 -0.77796733
000360 80 83 61 3f 93 9f 34 3f a9 3a 51 3f c9 21 16 bf
       0.8809128 0.7055599 0.81730133 -0.586453
000370 79 5a 31 bf 7e 73 19 bf 02 2f 6d 3f 48 1e 89 bc
       -0.69278675 -0.5994185 0.92649853 -0.016738072
000380 63 47 82 3e ed a1 5c 3e 25 8a 74 bf 49 17 af be
       0.2544509 0.21546145 -0.9552329 -0.34197453
000390 bb 08 08 3f 4a 92 9d be 33 08 94 be b9 a1 6f bf
       0.5313832 -0.30775672 -0.28912506 -0.93606144
0003a0 fa 31 d5 3e ab bc ae be 00 16 31 3f e6 3d 29 be
       0.41639692 -0.34128317 0.69174194 -0.16527519
0003b0 34 4d 2d bf 2f e1 28 3f 1e 1e 60 3e 97 f0 6e 3e
       -0.6769593 0.659686 0.21886489 0.23333965
0003c0 d8 d5 28 bf 9b 08 1c 3f 6d 65 19 3f 2f c7 25 3f
       -0.659513 0.6095063 0.5992039 0.64757055
0003d0 b8 c1 0b bf 4c 43 2b bf a2 c8 75 3e 43 f0 c9 be
       -0.54592466 -0.6689956 0.24002317 -0.39441118
0003e0 11 46 35 bf 3f 69 cb be 16 7b f4 be 5d 4c 68 be
       -0.7081004 -0.39728734 -0.47750157 -0.2268538
0003f0 86 f7 a8 3d 2f a1 5e 3f 57 31 92 be 4b 12 5b 3f
       0.08250336 0.86964697 -0.28553268 0.8557479

param_5 f4 [128]
000000 60 a1 9c b0 01 99 37 31 af b9 4d 30 8a 9f bd 30
       -1.1396359e-09 2.6716978e-09 7.484244e-10 1.3796904e-09
000010 45 72 b0 30 a0 e7 45 31 9c 15 f5 af bc c1 49 af
       1.2838163e-09 2.8798937e-09 -4.4580595e-10 -1.8349672e-10
000020 45 ef 8e b0 0d 27 c1 30 d4 60 8f b1 38 58 09 31
       -1.0399864e-09 1.4053697e-09 -4.172856e-09 1.998627e-09
000030 99 0c e1 30 da e7 df 2f f6 61 58 b1 b7 de 29 af
       1.6374485e-09 4.0728204e-10 -3.1487821e-09 -1.5449585e-10
000040 9e 6e e1 30 d9 51 64 b0 20 bf d2 b0 8e ef 57 b1
       1.6402344e-09 -8.306223e-10 -1.5333832e-09 -3.1422789e-09
000050 80 10 a9 af d6 4a 19 b1 70 cf 51 30 1f 49 18 31
       -3.0752645e-10 -2.230697e-09 7.6328543e-10 2.2160476e-09
000060 79 bd 78 af a3 ad ac b0 43 fe a3 b0 03 00 cc b0
       -2.2622783e-10 -1.2563998e-09 -1.1932076e-09 -1.4842957e-09
000070 0e 31 09 b2 2b 80 c8 30 b5 38 98 31 bc cc 2d 2e
       -7.985603e-09 1.4588343e-09 4.430229e-09 3.9517487e-11
000080 d5 d7 93 b1 d0 4a 0a 32 c1 81 8a b1 c6 b1 81 31
       -4.3028003e-09 8.049668e-09 -4.03108e-09 3.7746046e-09
000090 d1 f9 7c b1 80 5c 51 31 98 a0 f9 30 f4 67 37 b1
       -3.681283e-09 3.0466083e-09 1.8162778e-09 -2.6689095e-09
0000a0 95 3f 3e 31 df 7c 94 2f 37 1f 31 b1 1e 67 37 31
       2.7684781e-09 2.700977e-10 -2.5774634e-09 2.668862e-09
0000b0 31 7a 9d 31 4b 60 e0 30 88 0a 72 31 58 d1 8d b0
       4.583193e-09 1.6325513e-09 3.5221621e-09 -1.0318599e-09
0000c0 66 fe 94 31 c3 69 d9 30 71 ce 77 30 8e f8 b4 31
       4.3362887e-09 1.5818887e-09 9.015145e-10 5.266947e-09
0000d0 0e 9f 06 31 14 ba cd b0 1d b4 e7 b1 11 00 7e af
       1.9589979e-09 -1.49686e-09 -6.7434613e-09 -2.3101189e-10
0000e0 f7 8a 0c 30 46 16 78 31 ce ae f9 30 3d 08 0e b0
       5.1129184e-10 3.610141e-09 1.8166817e-09 -5.1671006e-10
0000f0 40 1f 98 30 71 d9 0f b1 f1 3b 34 30 72 ce 55 31
       1.1068337e-09 -2.093284e-09 6.55688e-10 3.111293e-09
000100 19 b9 3f 30 c2 a8 26 b0 91 17 39 b0 81 03 e0 30
       6.9748435e-10 -6.063027e-10 -6.73361e-10 1.6299141e-09
000110 9e 1a 50 31 00 ed 06 2f 9c c4 a9 30 58 f8 24 b1
       3.0283114e-09 1.2271428e-10 1.2352248e-09 -2.4006308e-09
000120 b4 e5 b7 30 ff 61 8d b1 85 9e 5b 31 55 2a 16 30
       1.3380288e-09 -4.114781e-09 3.1958802e-09 5.462984e-10
000130 67 f4 8b b1 9f d4 d0 2f 3f 82 ad b0 f5 9f 99 31
       -4.0732178e-09 3.7986056e-10 -1.2624425e-09 4.471071e-09
000140 68 f0 8b b1 16 79 e9 2e 90 bb 2b 31 b3 19 82 b1
       -4.0727635e-09 1.06171225e-10 2.4990392e-09 -3.7864196e-09
000150 f2 78 a5 30 36 db 9f b0 cb 8d 12 b1 97 46 09 b2
       1.2039705e-09 -1.1631076e-09 -2.1326396e-09 -7.9905e-09
000160 20 33 e5 b0 f8 cb 75 31 f9 e2 ae 30 e5 50 c4 af
       -1.6676474e-09 3.5768135e-09 1.2724676e-09 -3.570967e-10
000170 b7 51 82 b1 97 34 a4 2f 28 e3 aa b1 dc 8f 4b b1
       -3.792788e-09 2.9868794e-10 -4.973476e-09 -2.9622163e-09
000180 6e 02 3c 2f 90 05 ae af 0b b6 bd 30 b4 f3 0c b1
       1.7099364e-10 -3.1654368e-10 1.38033e-09 -2.051121e-09
000190 c5 27 d0 2f f6 7d 56 30 47 d1 f8 30 82 e2 1d 2f
       3.7863238e-10 7.803175e-10 1.8103855e-09 1.4359539e-10
0001a0 20 9e f3 b0 9a bb d7 31 b2 05 90 31 b1 3f b1 31
       -1.7725519e-09 6.2786514e-09 4.191599e-09 5.158619e-09
0001b0 5d 78 94 af 8d f2 2f b0 71 ae 68 30 5a a6 8c 2e
       -2.7006566e-10 -6.4009315e-10 8.4649004e-10 6.396013e-11
0001c0 c7 a8 02 b0 6e 88 0e b1 dc c9 42 b1 87 14 9b 31
       -4.753357e-10 -2.074127e-09 -2.834546e-09 4.5134274e-09
0001d0 3a 07 98 30 83 19 66 b0 16 6e 91 b1 17 85 bd 31
       1.106151e-09 -8.3709767e-10 -4.2325707e-09 5.5157545e-09
0001e0 94 87 0c b0 19 29 30 31 df 1b 2c 30 0f 3a 1f 31
       -5.112437e-10 2.5634732e-09 6.261284e-10 2.3170548e-09
0001f0 e5 d3 f5 b0 2b f8 03 31 b9 af ba 31 fc b2 05 b1
       -1.788632e-09 1.9204076e-09 5.43329e-09 -1.9455788e-09

param_6 f4 [128]
000000 ce 4a 88 3f ad aa 05 3f 7a 54 1e 3f f4 b4 3d 3f
       1.0647829 0.52213556 0.6184765 0.7410424
000010 d9 ff 17 3f e1 0c fc 3e 28 7f 0b 3f 1c d3 59 3f
       0.5937477 0.49228576 0.544909 0.8508775
000020 79 ac 83 3f 79 70 1e 3f bf a9 8e 3f 1d d7 4e 3f
       1.028701 0.6189037 1.1145552 0.80796987
000030 f8 2c 0b 3f eb e4 5b 3f f9 ff 43 3f 98 f6 33 3f
       0.5436549 0.85896176 0.7656246 0.7029815
000040 1f 09 bf 3e 14 10 24 3f 2b d8 01 3f ad 07 58 3f
       0.37311646 0.64087033 0.5072047 0.8438671
000050 cb 8e 7a 3f 5f 13 4b 3f 6d 10 6e 3e 38 c8 3d 3f
       0.97874135 0.7932643 0.23248453 0.74133635
000060 6b 69 30 3f 72 a1 09 3f bd 41 69 3f c7 d5 76 3f
       0.68910855 0.5376197 0.91115934 0.9641995
000070 ff 7c 8d 3f 2f b4 64 3f 24 ae 3e 3f 25 b8 47 3f
       1.1053771 0.8933744 0.7448447 0.7801536
000080 9f dd 7e 3f 93 00 4a 3f f1 f3 8a 3e 66 c5 4e 3f
       0.99556917 0.78907126 0.27139238 0.80769956
000090 84 83 8f 3f f0 7b 2f 3f 3d a5 69 3f 1d 2a 98 3f
       1.121201 0.6854849 0.9126776 1.1887852
0000a0 62 87 0b 3f 26 c9 1b 3f e7 2f 51 3f 04 45 5d 3f
       0.5450345 0.60853803 0.8171372 0.86433434
0000b0 94 f8 62 3f 3f eb 02 3f 37 97 8f 3f d2 94 06 3f
       0.8866055 0.5114021 1.1218022 0.5257083
0000c0 60 0a 46 3f a3 d4 67 3f 58 74 a0 3f 6d b4 29 3f
       0.7735958 0.9055883 1.2535505 0.6629093
0000d0 49 af be 3e 60 ab 35 3f 20 24 15 3f ab 0b 5e 3f
       0.37243107 0.7096462 0.5825825 0.86736554
0000e0 40 bf 04 3f 15 92 ca 3e 6c 0b 1c 3f 04 68 f7 3e
       0.51854324 0.39564577 0.6095493 0.48321545
0000f0 ae ea 54 3f 59 07 a5 3f 06 b5 56 3f 5c e7 5d 3f
       0.8317059 1.2892867 0.8386997 0.8668115
000100 3c 15 80 3f fa 29 e3 3d 17 84 74 3f 6d a8 96 3e
       1.000648 0.11091991 0.95514053 0.29425374
000110 57 1a 0d 3e c3 a0 84 3e c6 d1 1e 3f c4 e7 8c 3f
       0.13779579 0.259039 0.6203884 1.1008229
000120 c9 e9 93 3f af 1f 07 3f 02 9b c9 3e c4 d5 11 3f
       1.155572 0.5278272 0.39376074 0.56966805
000130 c4 54 22 3f b6 59 86 3f 97 68 30 3f 34 d3 51 3f
       0.6341059 1.0496128 0.6890959 0.81962895
000140 b2 2a 8a 3f a5 a9 6b 3f ec 1c 80 3f 28 5c 35 3f
       1.079428 0.9205573 1.0008826 0.70843744
000150 ee 57 9b 3f 91 cf 38 3f bd 9d b8 3e c5 be 6c 3f
       1.2136209 0.7219172 0.36057845 0.9247859
000160 d9 d3 fc 3e ad 5d 18 3f b0 7e 39 3f 4a 08 19 3f
       0.49380377 0.5951794 0.72458935 0.59778273
000170 b4 ef 3c 3f 42 18 35 3e a5 bf 8c 3f 73 3d 7c 3f
       0.7380326 0.17685035 1.0995985 0.98531264
000180 88 8f ba 3e 1b ab 4b 3f 27 ee 7a 3f 7a 15 df 3e
       0.3643763 0.7955796 0.9801964 0.43571073
000190 1a 86 5e 3f 45 06 4b 3e da 72 67 3f ce d5 ba 3e
       0.8692337 0.1982661 0.90409625 0.36491245
0001a0 71 06 81 3f 40 92 6b 3f 41 42 26 3f d8 68 9a 3f
       1.0080091 0.92020035 0.64944845 1.2063246
0001b0 1f 3c 51 3f 74 ae 30 3f 73 26 46 3f 85 fe 38 3f
       0.8173236 0.69016194 0.7740242 0.72263366
0001c0 9b 6a 3d 3f 89 59 76 3f b9 22 35 3f 48 9c 54 3f
       0.7399079 0.9623037 0.7075611 0.83050966
0001d0 9e 50 2d 3f 77 71 da 3e 1c 62 98 3f 41 03 31 3f
       0.6770114 0.42664692 1.1904941 0.6914559
0001e0 d1 39 6b 3f 9a b1 68 3f 13 f7 0c 3f 4b 12 2d 3f
       0.91885096 0.90896 0.55064505 0.6760604
0001f0 a4 e4 4e 3f 96 54 67 3f b3 88 3f 3f e2 f4 6e 3f
       0.8081763 0.9036344 0.7481796 0.9334241

param_7 f4 [128]
000000 8c 68 8b bd be 19 b4 3e 7a 8c 50 3d 49 d1 56 3e
       -0.0680705 0.3517589 0.05091522 0.20978273
000010 a2 ed d0 be ab 0f 94 be 6c 30 a1 3e e4 ce 89 3e
       -0.408063 -0.28918204 0.31482255 0.26915658
000020 9c cd 88 3e bb ad 14 3e 54 1c 81 3d d7 ba c6 3e
       0.26719368 0.14519398 0.06304231 0.38814422
000030 61 98 91 be 50 a7 20 bd a3 07 bd 3d 7a c8 3e be
       -0.28436568 -0.03922206 0.09229972 -0.18631163
000040 58 fb b7 bd b5 86 14 be b3 c7 e7 bd 6c 32 d2 3d
       -0.08983487 -0.14504512 -0.113173865 0.102635235
000050 8b 87 16 3f 2a 64 85 3d 14 fd 00 bf 7b f9 27 3e
       0.5880057 0.065132454 -0.50386167 0.16403763
000060 6b 3b 7a 3e 73 72 dc 3c 09 8f 23 3e d2 72 89 bd
       0.24436729 0.026910042 0.15972532 -0.06711353
000070 0e c2 1a 3f 64 44 d2 3d 86 de 9c 3e 4d 02 b0 3d
       0.60452354 0.10266951 0.30638522 0.08594189
000080 f5 c1 84 3c ed 59 83 3e 78 44 84 3e 83 87 c8 3e
       0.016205767 0.25654545 0.25833488 0.39165887
000090 52 d4 c0 3d 80 1e 6b 3e 04 3a 89 bd df 6a 94 bd
       0.09415497 0.22960854 -0.06700519 -0.072469465
0000a0 12 c8 e0 be e8 df 04 3f f9 1b c5 3e 9a 35 14 be
       -0.43902642 0.51904154 0.38497904 -0.14473572
0000b0 80 84 9c 3e ac 42 aa 3d 6c e5 71 3e 08 49 8c 3c
       0.3056984 0.08313498 0.23622674 0.017124668
0000c0 56 d1 d0 3d d9 52 81 3e 2e c8 c1 3e 20 ad 6b bd
       0.10196178 0.2525852 0.37848037 -0.05753815
0000d0 34 74 b5 be 77 b1 5b 3d 7b 5e 33 3f 3b eb 1f 3f
       -0.35440218 0.05363604 0.7006604 0.6246831
0000e0 a0 81 7b bc 48 df b3 3d e6 3d cb be 2f ef 67 be
       -0.015350729 0.08782822 -0.39695662 -0.22649835
0000f0 3f 6e 6e 3c 46 d9 80 3e 33 ba e2 bd fd 7b 20 be
       0.014552652 0.25165766 -0.11070671 -0.15672298
000100 2d c6 17 3f 2c 52 c3 bd 4e 58 cf 3e 82 a5 89 3d
       0.5928677 -0.095371574 0.4049706 0.06721021
000110 06 e4 de be 42 a8 e1 be 22 73 7e bd a8 dc 87 3e
       -0.43533343 -0.44073683 -0.062121518 0.26535535
000120 a6 c7 b2 3d fa cc c8 bd c8 8d 80 be 8d f3 a9 be
       0.08729486 -0.09804721 -0.2510817 -0.33193627
000130 6f 70 b5 3c 6d 99 c5 3d be 25 d3 bc 53 3e 93 3e
       0.02214834 0.09648404 -0.025774833 0.28758487
000140 b2 2c 3f bd 59 91 b8 bc b5 cd 70 3e c1 68 3c be
       -0.046673484 -0.022530245 0.23515971 -0.18399335
000150 79 12 84 be 05 af 2c be ba fa e9 be 40 87 a1 3e
       -0.25795344 -0.1686364 -0.45699102 0.315485
000160 6a 29 ea be 0b 6a 2b 3f ba 88 c3 3d a4 8f ef be
       -0.4573472 0.66958684 0.09547563 -0.46789277
000170 9c 93 6e 3d ba c4 0a bf c3 26 32 3e a2 e4 8b 3e
       0.05824624 -0.5420643 0.17397599 0.2732287
000180 eb 0e 98 be 0d a8 56 3e 4f ca fc bd 77 5c e7 be
       -0.29698882 0.20962544 -0.12343275 -0.45187733
000190 b6 ff 7c bd 64 5a c0 be 4c fc 33 be e2 c2 7e be
       -0.061767302 -0.37568963 -0.17576712 -0.2487903
0001a0 70 a5 1d 3d 84 6f c2 bc bd 22 27 bd 38 8a 4b 3e
       0.03848785 -0.023734815 -0.040804613 0.19876945
0001b0 d4 35 55 3c 75 29 b9 3e 93 77 be 3d 38 e5 63 3c
       0.013013322 0.36164442 0.09300151 0.0139096305
0001c0 35 05 27 3b a3 59 7e be 0d f2 ad bd 7a 4d 34 be
       0.0025485281 -0.24838881 -0.08493433 -0.1760768
0001d0 8a 09 4c 3d 9a 42 e7 bd d0 06 39 be c2 ef c9 3d
       0.049813785 -0.11292 -0.18069005 0.09860183
0001e0 89 ee 99 be 59 10 58 3e 92 25 1b 3e 71 21 a4 bd
       -0.300648 0.21099986 0.1515105 -0.08014191
0001f0 2c bb 6a be 7d 74 44 3e 42 68 7e 3d 4e 66 a8 bd
       -0.22922963 0.19185062 0.062111147 -0.08222638
