Lab4/teacher_weights.npz (npz, 989040 bytes, 22 tensors)

fc1.weight f4 [784, 256]
0	0xbd8311e2	-0.06399895
1	0xbcbd2f5f	-0.023093877
2	0xbd3dd734	-0.04634781
3	0x3d13dd9a	0.036100008
4	0x3c469e98	0.012122773
5	0xbd6cd8a5	-0.057823796
6	0x3d914b28	0.07094413
7	0xbcbb616b	-0.022873601
8	0xbce87bb5	-0.0283793
9	0x3d3aacd4	0.045574978
10	0x3d2fcf49	0.042922292
11	0xbd103310	-0.035204947
12	0xbd950d15	-0.07277886
13	0xbd713671	-0.05888981
14	0xbd829cca	-0.063775614
15	0xbd4ea467	-0.050449755
16	0x3d388c0b	0.04505543
17	0x3d4ba0fe	0.04971408
18	0xbc8743e9	-0.016511874
19	0xbd353b1b	-0.04424582
20	0xbcd75993	-0.02628783
21	0x3d48cf4b	0.049025815
22	0xbbf5d376	-0.0075020147
23	0xbd36fcb5	-0.044674594
24	0xbcd15005	-0.025550852
25	0x3c864f7e	0.016395327
26	0xbc94eac0	-0.018178344
27	0x3d98d898	0.07463187
28	0x3c967920	0.018368304
29	0x3cf28896	0.029606145
30	0xbd15637d	-0.036471833
31	0x3d060b11	0.032725397
32	0x3c7cb4f8	0.015424006
33	0x3d66fdb1	0.056394283
34	0xbc4da511	-0.012551562
35	0xbce949e0	-0.02847761
36	0xbc0cc1fb	-0.00859117
37	0x3d8f7502	0.07004739
38	0x3d172242	0.036897905
39	0xbd94d29e	-0.072667345
40	0xbbd2c657	-0.0064323354
41	0xbd279545	-0.04091384
42	0x3d9537b8	0.07286018
43	0xbc2f06ac	-0.010682743
44	0xbd3f775f	-0.0467447
45	0xbd462c80	-0.048382282
46	0x3cdfb257	0.027306719
47	0xbce88d28	-0.028387621
48	0x3d9509b3	0.072772406
49	0xbd50f094	-0.051010683
50	0xbd95b2a8	-0.073094666
51	0x39b1c4db	0.0003390674
52	0x3d9ac261	0.07556606
53	0x3d3da215	0.04629715
54	0x3d066384	0.03280975
55	0xbd94faba	-0.07274385
56	0x3c9ca749	0.019122737
57	0xbd37f62e	-0.04491251
58	0x3ce5f576	0.028071146
59	0x3d001b42	0.031275995
60	0xbd957bc1	-0.07298995
61	0xbd88cd46	-0.06679778
62	0xbc8a7b64	-0.01690454
63	0xbd2e0cd2	-0.042492695
64	0x3cd6866f	0.02618715
65	0xbc3b1335	-0.0114181535
66	0xbd004ebb	-0.031325083
67	0x3d4cd123	0.050004136
68	0xbc7c200c	-0.0153885
69	0xbd8e410c	-0.069460005
70	0xbd292c33	-0.041301917
71	0x3d99bd83	0.075068496
72	0xbd1f0ccc	-0.038830563
73	0xbd81188a	-0.063035086
74	0xbd608f9a	-0.05482445
75	0xbc055d9e	-0.008139996
76	0xbb8ef90d	-0.0043631853
77	0x3cb24099	0.021759318
78	0x3d41e9bc	0.047342047
79	0x3d8d10af	0.06887948
80	0xbd98e528	-0.07465583
81	0x3d7dc72d	0.061957527
82	0xbd16ac6e	-0.036785536
83	0x3d7bde1f	0.061491128
84	0x3d03a05b	0.03213535
85	0x3d11b7fa	0.035575844
86	0xbd4a6ebb	-0.049422007
87	0x3d42d852	0.04756958
88	0x3c034b2a	0.008013526
89	0xbd1fb661	-0.03899229
90	0x3c9f2f20	0.01943165
91	0xbc8fae44	-0.017539151
92	0xbd631c80	-0.0554471
93	0xbcaf8278	-0.021424517
94	0x3d007dba	0.031369902
95	0x3c4974de	0.01229593
96	0xbd16980a	-0.03676609
97	0x3d77a3fb	0.06045912
98	0xbd2275d2	-0.039663143
99	0x3d93bf6a	0.07214244
100	0x3d7750d8	0.060379833
101	0xbd848f9d	-0.064727046
102	0xbd832a5b	-0.06404563
103	0x3cb90f51	0.022590311
104	0xbd0f308c	-0.034958407
105	0xbd21330e	-0.03935533
106	0xbd6dcd39	-0.058057044
107	0xbd869129	-0.06570656
108	0xbcd6bdea	-0.026213605
109	0xbce94e3f	-0.028479693
110	0x3c9e15a7	0.019297434
111	0xbd2deab2	-0.04246015
112	0x3c820803	0.01587296
113	0xbcfcfe06	-0.030882847
114	0x3d45979e	0.048240297
115	0x3cbcb17f	0.023033855
116	0x3b8e44bd	0.0043416903
117	0xbd0a789a	-0.03380642
118	0x3d9947e3	0.074844144
119	0xbd8d11dc	-0.06888172
120	0x3d5c09a3	0.053720128
121	0xbd7357e4	-0.05940999
122	0x3b5eca95	0.003399526
123	0x3d8cb3f7	0.06870263
124	0xbd3c6262	-0.045992263
125	0xbcae30f4	-0.021263577
126	0x3a5dc3b5	0.00084596436
127	0xbcd3bd0c	-0.02584698
128	0xbd400245	-0.046877164
129	0x3c32c76e	0.010911806
130	0xbbf4b52b	-0.007467886
131	0xbc6b2f25	-0.014354502
132	0x3d6a2187	0.05716088
133	0x3d0db633	0.034597587
134	0xbd19a97c	-0.03751515
135	0xbc6d7208	-0.014492519
136	0x3d86044b	0.065437876
137	0xbd2374b0	-0.039906204
138	0x3d8fd5fe	0.07023238
139	0xbd992d05	-0.0747929
140	0xbd12a2c4	-0.035799757
141	0x3d29a658	0.041418403
142	0xbcfe3b7a	-0.03103422
143	0xba74bbd0	-0.00093358476
144	0xbd1de10f	-0.03854471
145	0x3d4941b5	0.04913493
146	0x3cedf28f	0.029046325
147	0x3d10d1b2	0.03535623
148	0xbca3323e	-0.019921418
149	0xbd9122b8	-0.070867
150	0xbd90a313	-0.07062354
151	0x3c759121	0.014988215
152	0xb957ed3c	-0.00020592374
153	0x3cea3d5c	0.028593712
154	0xbcbc6ae3	-0.023000186
155	0x3ca2a666	0.019854736
156	0xbd257724	-0.040396824
157	0x3ab75d2d	0.001398956
158	0x3d91902b	0.07107576
159	0xbd670895	-0.05640467
160	0x3bbf59ea	0.005839576
161	0xbc70acd2	-0.014689641
162	0x3b8beb89	0.0042700213
163	0x3c52a4fb	0.012856717
164	0x3d63fd28	0.05566135
165	0xbbbf93ca	-0.0058464753
166	0xbca29d1c	-0.019850306
167	0xbaad4839	-0.0013220377
168	0x382c79d3	4.1121453e-05
169	0xbd99ba06	-0.07506184
170	0xbb37cde4	-0.0028046304
171	0xbd824b78	-0.06362051
172	0x3c38332c	0.011242669
173	0x3c9b7869	0.018978314
174	0x3d8e0862	0.06935193
175	0xbba2db2d	-0.0049699754
176	0xbd51dcc0	-0.051235914
177	0x3cea73f7	0.02861975
178	0xbcbe8ce9	-0.02326055
179	0x3cc4943d	0.023996467
180	0xbd87d79f	-0.06632923
181	0x3d60c867	0.05487862
182	0x3d5897a8	0.052879006
183	0xbd6ddbae	-0.05807083
184	0x3d2b0783	0.04175521
185	0x3b72d7b9	0.003705485
186	0xbd260f29	-0.0405418
187	0x3cbfd20f	0.023415593
188	0xbd40f411	-0.04710776
189	0xbd8d1ed1	-0.068906434
190	0xbd313637	-0.043264594
191	0xbd3ae31e	-0.045626752
192	0x3c2b2c65	0.010447596
193	0x3d86fa3a	0.06590696
194	0x3c3b3c71	0.011427985
195	0x3c1fd6e0	0.00975582
196	0xbd83214a	-0.06402834
197	0x3cf85222	0.030312601
198	0x3d6213aa	0.055194534
199	0xbd3ba6bf	-0.04581332
200	0xbbb6aafa	-0.005574581
201	0x3cff0684	0.031131037
202	0x3d48fe54	0.04907067
203	0x3cfbbd18	0.030729815
204	0xbd059148	-0.032609254
205	0x3cb0b8a4	0.021572419
206	0xbc971ae2	-0.018445436
207	0x3d774290	0.060366213
208	0xbcd716ef	-0.026256053
209	0x3d7a7075	0.061142404
210	0xbd1e94a1	-0.038715962
211	0x3cdf803f	0.027282832
212	0x3c1ed629	0.009694614
213	0xbbddb0e8	-0.0067654736
214	0x3d08f1fb	0.033433896
215	0xbc4cc8c7	-0.012499041
216	0x3d449024	0.047989026
217	0x3d3206ea	0.043463625
218	0xbd6a583f	-0.057213064
219	0xbc3ffa27	-0.011717356
220	0x3d20f924	0.0393001
221	0x3cc7296b	0.024311742
222	0xbd8e217c	-0.069399804
223	0xbd91f2b1	-0.07126368
224	0xbae449ea	-0.0017417048
225	0x3bf9ec53	0.007627049
226	0xbba8a348	-0.0051464178
227	0x3d3f6362	0.04672564
228	0xbd5d3603	-0.054006588
229	0x3d5ce53d	0.053929556
230	0xbcc22ec6	-0.023703944
231	0xbb55bf06	-0.003261508
232	0xbca188a7	-0.019718481
233	0xbd47d620	-0.04878819
234	0x3d520258	0.051271766
235	0x3d83e132	0.06439437
236	0x3d2c41f0	0.04205507
237	0x3cbce878	0.023060068
238	0x3d885460	0.06656718
239	0x3d935233	0.07193413
240	0x3c887600	0.01665783
241	0xbcb61a55	-0.022229353
242	0xbd76ba35	-0.060236175
243	0x3d8f0688	0.069836676
244	0xbd7c250b	-0.061558764
245	0xbd0462b2	-0.032320686
246	0x3d888eab	0.06667837
247	0x3d5db98f	0.05413204
248	0xbd505fda	-0.05087266
249	0xbd58367a	-0.052786328
250	0xbcd18136	-0.025574308
251	0xbcff254a	-0.03114571
252	0xbaa79146	-0.0012784384
253	0xbc0fc35e	-0.0087746065
254	0xbcd99a7b	-0.02656292
255	0x3d125ef7	0.035735097

fc1.bias f4 [256]
0	0xb0bc7904	-1.3713195e-09
1	0xb2eaf8bc	-2.7354297e-08
2	0xb2538241	-1.2311433e-08
3	0x32690076	1.356249e-08
4	0x31ba50a0	5.4224785e-09
5	0xb27556a9	-1.4280581e-08
6	0xb2f30b5d	-2.829409e-08
7	0xb2147a19	-8.642496e-09
8	0x3244f85e	1.1465174e-08
9	0xb18b1ac7	-4.0484767e-09
10	0x32053d32	7.755533e-09
11	0x324602fa	1.1525794e-08
12	0x30e37504	1.6549682e-09
13	0x31f3ee88	7.0993487e-09
14	0x3192471e	4.2572443e-09
15	0xb227b582	-9.7619495e-09
16	0x2fdaaa2e	3.977489e-10
17	0x32470900	1.1585371e-08
18	0x324ff49b	1.2104603e-08
19	0x32b4e972	2.1060917e-08
20	0x31ff3c16	7.4283077e-09
21	0xb13d0e8f	-2.7511395e-09
22	0xb1d9115c	-6.3175047e-09
23	0xb23330fe	-1.0430311e-08
24	0xb2bc10b7	-2.1893682e-08
25	0xb1c97ba3	-5.863926e-09
26	0x31ada141	5.053295e-09
27	0xb2deeb94	-2.595133e-08
28	0xb267266b	-1.3454705e-08
29	0x316e29fe	3.4657428e-09
30	0x32089b2f	7.9515265e-09
31	0xb184ef0b	-3.8688817e-09
32	0x3266715f	1.341354e-08
33	0x3208aa9a	7.955032e-09
34	0xb049bf5e	-7.3395323e-10
35	0x303bd787	6.8336486e-10
36	0x32bb7479	2.182263e-08
37	0xb1edcb63	-6.92073e-09
38	0x3288377b	1.5857713e-08
39	0xb2688851	-1.3535172e-08
40	0xb22f40b0	-1.0201049e-08
41	0xb0ad4a08	-1.2608448e-09
42	0x310a07ae	2.0086008e-09
43	0x33055af9	3.1049215e-08
44	0xb2230815	-9.489686e-09
45	0xb1af500b	-5.10227e-09
46	0xb24175a6	-1.1260829e-08
47	0x32bad1a1	2.1748578e-08
48	0xb1360036	-2.6484606e-09
49	0x31be8a68	5.5454628e-09
50	0x323e6b56	1.1083861e-08
51	0x3148c8d8	2.9217997e-09
52	0x31d3d2c3	6.164869e-09
53	0x3299e785	1.7916827e-08
54	0xb2c52b63	-2.2953548e-08
55	0xb1eac251	-6.8323875e-09
56	0xb1bb35a0	-5.4485128e-09
57	0xb04a2b37	-7.3548584e-10
58	0x3268244e	1.3512432e-08
59	0x32a287cb	1.8921034e-08
60	0xb2628894	-1.3185986e-08
61	0xb1945c97	-4.317893e-09
62	0xb1d7edfc	-6.2843792e-09
63	0xb1bd0d01	-5.5021023e-09
64	0x32f1ef64	2.8164955e-08
65	0x31fc1556	7.336591e-09
66	0xb22e46a6	-1.0144197e-08
67	0xb0af1f0b	-1.2741749e-09
68	0xb02aa2a7	-6.207678e-10
69	0x3294641b	1.727499e-08
70	0xb25bb68e	-1.2788986e-08
71	0x32d71493	2.503865e-08
72	0xb1157394	-2.1748052e-09
73	0x31ad8c58	5.050918e-09
74	0xb2aa1aaf	-1.9802739e-08
75	0xb07bf015	-9.1654445e-10
76	0x3296700e	1.7513255e-08
77	0xb20dc55a	-8.252153e-09
78	0x30b2ffc8	1.3023902e-09
79	0x316947d2	3.3946788e-09
80	0x311a3896	2.2442115e-09
81	0x3002f874	4.76468e-10
82	0xb2ac11e2	-2.0031568e-08
83	0xb1794ff7	-3.6279724e-09
84	0x31e0ff19	6.5482593e-09
85	0xb16ef064	-3.4770204e-09
86	0xb1a73611	-4.8664863e-09
87	0x2f33bd2e	1.6347165e-10
88	0x325d10d5	1.286772e-08
89	0xb19feecd	-4.6546575e-09
90	0x32130cce	8.559438e-09
91	0x3160b4cf	3.2699068e-09
92	0xb118bdb4	-2.2226745e-09
93	0x315c9f63	3.2104814e-09
94	0xb0f1b62a	-1.7586832e-09
95	0xb2918dcc	-1.6944703e-08
96	0x30b4fd37	1.3168692e-09
97	0x32f28651	2.8233588e-08
98	0x32663344	1.33994185e-08
99	0xb1d7dc33	-6.2823573e-09
100	0x32b0bf12	2.0575985e-08
101	0x30d9e9da	1.5855293e-09
102	0x318e37c3	4.1390833e-09
103	0x33095edc	3.1984072e-08
104	0x329d9b13	1.8347725e-08
105	0xb21888e5	-8.878691e-09
106	0xb298cde8	-1.7788764e-08
107	0x329bf320	1.8154935e-08
108	0x3219c8fc	8.951471e-09
109	0xb2007b6b	-7.478643e-09
110	0xb22f8de3	-1.0218602e-08
111	0xb2177c66	-8.817642e-09
112	0xb13a6009	-2.7121152e-09
113	0x31c4ac5e	5.7239466e-09
114	0xb2359e90	-1.057164e-08
115	0xb2207f0c	-9.342113e-09
116	0x3088d975	9.957107e-10
117	0x306dbb7d	8.6486535e-10
118	0x328bee86	1.6290198e-08
119	0xb2108b7e	-8.41362e-09
120	0x329c940c	1.8228114e-08
121	0xb1a071c9	-4.6695487e-09
122	0xb1a8f28b	-4.9170175e-09
123	0x329919e1	1.7823313e-08
124	0x327027cc	1.3978887e-08
125	0x324cfc29	1.1931697e-08
126	0x31eccdd6	6.891905e-09
127	0xb1f950d3	-7.2560424e-09
128	0xb19d057d	-4.5699253e-09
129	0xb258a87a	-1.2611162e-08
130	0xb1834741	-3.8207024e-09
131	0xb28c3188	-1.632067e-08
132	0x318334e7	3.818616e-09
133	0xb1d49dbe	-6.1879453e-09
134	0x318d94e8	4.1205688e-09
135	0xb10c5f5c	-2.0426887e-09
136	0x320c2bb4	8.1590095e-09
137	0x2fd46871	3.8636785e-10
138	0x31c083b5	5.602909e-09
139	0x32444d5f	1.1426294e-08
140	0xb0db5d55	-1.5960874e-09
141	0x306b4a43	8.5598034e-10
142	0x308ef0fd	1.0400353e-09
143	0x312fe982	2.5598585e-09
144	0xb2ba5302	-2.1690997e-08
145	0x2e379813	4.174445e-11
146	0x32b61bb9	2.1200195e-08
147	0x308d6fdc	1.0290893e-09
148	0x3231ffed	1.0360947e-08
149	0x30949c39	1.0812818e-09
150	0x322f3487	1.0198284e-08
151	0x32a7b2c8	1.9522659e-08
152	0xb272dd55	-1.4136579e-08
153	0x323e5d9d	1.1080741e-08
154	0x3229ddc5	9.887519e-09
155	0x3245ba2d	1.1509241e-08
156	0xb1d70aea	-6.2585643e-09
157	0x325af0b9	1.2744004e-08
158	0x31f6907b	7.175968e-09
159	0xb0a0fbbf	-1.1713083e-09
160	0xb228cf25	-9.825986e-09
161	0xb292b6ee	-1.7079824e-08
162	0xb28613cd	-1.5608657e-08
163	0xb157720b	-3.1351444e-09
164	0xb224731b	-9.572228e-09
165	0x30e0c608	1.6354429e-09
166	0xb211f425	-8.495623e-09
167	0x30db2aa2	1.5946464e-09
168	0xb2022c95	-7.577133e-09
169	0xb23984fc	-1.0798654e-08
170	0xb1b09308	-5.1389897e-09
171	0x32977060	1.7629816e-08
172	0xb26783f0	-1.3475969e-08
173	0xb0ec3509	-1.7186333e-09
174	0xb1493d95	-2.9284355e-09
175	0xafcffb3e	-3.78316e-10
176	0x31e27587	6.590827e-09
177	0x311db63f	2.2950102e-09
178	0x31ad7c4a	5.0490927e-09
179	0xb28ce3ce	-1.6401739e-08
180	0x32a345e7	1.9007485e-08
181	0x328217a9	1.5144751e-08
182	0x3288c511	1.59221e-08
183	0xb20da80f	-8.245492e-09
184	0xb0b69969	-1.3285845e-09
185	0x331d93ea	3.6688938e-08
186	0x308f7597	1.043804e-09
187	0x3267b640	1.34874085e-08
188	0x31ced5b7	6.0196856e-09
189	0x322e6ac9	1.0152413e-08
190	0x33028930	3.0392755e-08
191	0x324d5320	1.1951471e-08
192	0xb27f169f	-1.4848097e-08
193	0xb101ca40	-1.8886936e-09
194	0xb31da060	-3.670027e-08
195	0x315410f4	3.0859697e-09
196	0x325189bc	1.2196718e-08
197	0xb11c1cc9	-2.271735e-09
198	0x31ae3182	5.069695e-09
199	0x31d3ddb0	6.166111e-09
200	0x3226c2f3	9.706798e-09
201	0xb0547564	-7.7291973e-10
202	0xb1fa28b8	-7.280587e-09
203	0xb1eaac5e	-6.829892e-09
204	0xafcbf90b	-3.710244e-10
205	0xb2be4a98	-2.2152832e-08
206	0xb27ee5e8	-1.48370205e-08
207	0xb2a861a1	-1.960217e-08
208	0x32b367e8	2.0885594e-08
209	0xae5a607c	-4.9653157e-11
210	0x3182114e	3.7854653e-09
211	0x31da9474	6.361512e-09
212	0x32371efb	1.0659046e-08
213	0xb27ed955	-1.48341615e-08
214	0xb161eb5b	-3.2875593e-09
215	0x3252105a	1.2227327e-08
216	0x319ee9fd	4.6250066e-09
217	0xb0751b52	-8.9169305e-10
218	0xb15a2f9b	-3.1750236e-09
219	0xb142f140	-2.836785e-09
220	0xb132c8bf	-2.601652e-09
221	0x31a671cc	4.844173e-09
222	0xb1128d4c	-2.1326114e-09
223	0xaf7518a2	-2.2291372e-10
224	0xb282e027	-1.5235925e-08
225	0xb28784b0	-1.5776408e-08
226	0x31b6801e	5.3114624e-09
227	0x3091ef04	1.0618071e-09
228	0x30f8aa18	1.8092718e-09
229	0x324fd59c	1.2097555e-08
230	0xb1d628aa	-6.2328427e-09
231	0x31f6396e	7.1660713e-09
232	0x3265c5e2	1.3374548e-08
233	0x31ff2fc6	7.426908e-09
234	0x31933104	4.2838355e-09
235	0xb2833d87	-1.5278387e-08
236	0x3210f01d	8.436499e-09
237	0xb27b8c07	-1.4641961e-08
238	0xb10f92f4	-2.0892772e-09
239	0x32685925	1.35244465e-08
240	0x327dc29a	1.47707855e-08
241	0xb1db16e8	-6.376343e-09
242	0xb2322a53	-1.0370587e-08
243	0x32761c93	1.4325582e-08
244	0x311d8289	2.2920708e-09
245	0x311a0506	2.2412805e-09
246	0x31578706	3.136337e-09
247	0xb1abab2e	-4.996216e-09
248	0x3274b49e	1.4243737e-08
249	0x309ff699	1.163886e-09
250	0xb28f88c6	-1.6709588e-08
251	0xb2ace4a4	-2.0127409e-08
252	0xb267c3f6	-1.3490526e-08
253	0x3323783d	3.806075e-08
254	0xb1b1bcaf	-5.172829e-09
255	0x331d3653	3.660382e-08

bn1.gamma f4 [256]
0	0x3f7b6f03	0.98216265
1	0x3f827392	1.0191519
2	0x3f7695d0	0.96322346
3	0x3f83c63e	1.0294874
4	0x3f817c50	1.0116062
5	0x3f796436	0.97418535
6	0x3f824942	1.0178607
7	0x3f842d01	1.0326234
8	0x3f72a770	0.9478674
9	0x3f80120a	1.0005505
10	0x3f79c2e9	0.97563034
11	0x3f841e4c	1.0321746
12	0x3f812c94	1.0091729
13	0x3f79b220	0.9753742
14	0x3f80d6f3	1.0065597
15	0x3f789d6f	0.97115225
16	0x3f7a0959	0.97670513
17	0x3f830a18	1.0237455
18	0x3f772839	0.9654575
19	0x3f810a70	1.008131
20	0x3f7facb0	0.99872875
21	0x3f80e983	1.0071262
22	0x3f820f54	1.0160928
23	0x3f6f6119	0.93507534
24	0x3f71e028	0.9448266
25	0x3f85e085	1.0459143
26	0x3f7d02cf	0.9883241
27	0x3f7b2d62	0.98116124
28	0x3f822800	1.0168457
29	0x3f7d9afc	0.9906461
30	0x3f81e85d	1.0149037
31	0x3f797fed	0.97460824
32	0x3f771c98	0.96528006
33	0x3f71624a	0.942906
34	0x3f813572	1.0094435
35	0x3f816273	1.0108169
36	0x3f7699cd	0.9632843
37	0x3f85d62b	1.0455984
38	0x3f75af35	0.9597047
39	0x3f7f7016	0.99780405
40	0x3f802aa3	1.0013012
41	0x3f7e3b0c	0.9930885
42	0x3f7be48e	0.9839562
43	0x3f8457e0	1.0339317
44	0x3f88b1ed	1.0679299
45	0x3f7676fc	0.96275306
46	0x3f7a20dc	0.9770639
47	0x3f833918	1.0251799
48	0x3f78108e	0.9690026
49	0x3f7929ce	0.97329414
50	0x3f8442ba	1.0332863
51	0x3f85b1b5	1.0444857
52	0x3f80deaf	1.0067958
53	0x3f8178c8	1.0114985
54	0x3f8977e8	1.0739717
55	0x3f8087ff	1.0041503
56	0x3f7eb78c	0.9949882
57	0x3f7994d4	0.9749272
58	0x3f80e5ed	1.0070168
59	0x3f80447b	1.0020899
60	0x3f77200a	0.9653326
61	0x3f84a09e	1.0361516
62	0x3f7cc2d5	0.9873479
63	0x3f842119	1.0322601
64	0x3f8229d3	1.0169014
65	0x3f825196	1.0181148
66	0x3f7a0b22	0.9767324
67	0x3f846106	1.0342109
68	0x3f7e21b8	0.992702
69	0x3f7cdf14	0.9877789
70	0x3f815d94	1.0106683
71	0x3f7e0150	0.9922075
72	0x3f7e9e0e	0.9945992
73	0x3f85dc4d	1.0457855
74	0x3f7b66fb	0.9820401
75	0x3f7d026d	0.98831826
76	0x3f813c98	1.0096617
77	0x3f77d5b4	0.9681046
78	0x3f84ee6c	1.038526
79	0x3f76e883	0.96448535
80	0x3f817787	1.0114602
81	0x3f807658	1.0036116
82	0x3f811b58	1.008647
83	0x3f86357f	1.0485076
84	0x3f7d10c3	0.988537
85	0x3f746e08	0.95480394
86	0x3f8040a1	1.0019723
87	0x3f86635e	1.0499074
88	0x3f728bf9	0.9474483
89	0x3f822910	1.0168781
90	0x3f7b5fd2	0.98193085
91	0x3f757095	0.9587491
92	0x3f7b81f0	0.98245144
93	0x3f7a893a	0.9786564
94	0x3f8597e9	1.0436984
95	0x3f846aef	1.0345134
96	0x3f803280	1.0015411
97	0x3f7bd7c0	0.98376083
98	0x3f829b63	1.020367
99	0x3f81332d	1.0093743
100	0x3f8178c1	1.0114976
101	0x3f7b80aa	0.982432
102	0x3f7cf0d8	0.98805
103	0x3f7a4a45	0.97769576
104	0x3f7eaaa6	0.9947914
105	0x3f84ab35	1.0364748
106	0x3f7bbc3f	0.98334116
107	0x3f7558a3	0.95838374
108	0x3f868eeb	1.0512365
109	0x3f805d76	1.0028522
110	0x3f876c7f	1.0579985
111	0x3f831bea	1.0242894
112	0x3f78fcbc	0.9726064
113	0x3f83ba4f	1.0291232
114	0x3f8102ec	1.0079017
115	0x3f7c30fb	0.9851224
116	0x3f7a6ace	0.9781922
117	0x3f7f580e	0.99743736
118	0x3f829119	1.020053
119	0x3f6eea3f	0.9332618
120	0x3f802a30	1.0012875
121	0x3f7957fa	0.97399867
122	0x3f7bd76c	0.9837558
123	0x3f7c636a	0.98589194
124	0x3f788d20	0.9709034
125	0x3f7edf74	0.9955971
126	0x3f817f0a	1.0116894
127	0x3f7bd753	0.98375434
128	0x3f899d1b	1.075107
129	0x3f748f06	0.95530736
130	0x3f8471f5	1.0347277
131	0x3f7d2bf1	0.98895174
132	0x3f82cd83	1.0218967
133	0x3f7772a3	0.96659297
134	0x3f843e23	1.0331463
135	0x3f79e54d	0.9761551
136	0x3f730fd6	0.9494604
137	0x3f7af59d	0.98031026
138	0x3f8aad87	1.0834206
139	0x3f7dd686	0.9915546
140	0x3f815d14	1.010653
141	0x3f73ec31	0.95282274
142	0x3f74eafa	0.95671046
143	0x3f7e26da	0.9927803
144	0x3f7700a5	0.9648536
145	0x3f7ad42e	0.9798001
146	0x3f7e27b9	0.9927936
147	0x3f86bbe8	1.0526094
148	0x3f80cb91	1.0062124
149	0x3f797e7c	0.97458625
150	0x3f7bd03a	0.98364604
151	0x3f812ac2	1.0091174
152	0x3f74dd4a	0.9565016
153	0x3f7ac108	0.9795079
154	0x3f79c2fe	0.9756316
155	0x3f7450d9	0.95435864
156	0x3f851dc0	1.0399704
157	0x3f786b8b	0.970391
158	0x3f79aa79	0.97525746
159	0x3f790d13	0.97285575
160	0x3f78d21f	0.9719562
161	0x3f82ebd4	1.0228219
162	0x3f8637bf	1.0485762
163	0x3f818f44	1.0121846
164	0x3f7bf822	0.98425496
165	0x3f863ee0	1.0487938
166	0x3f7a82fb	0.9785611
167	0x3f820d5c	1.0160327
168	0x3f756534	0.9585755
169	0x3f84b324	1.0367169
170	0x3f8582bf	1.0430526
171	0x3f773dd7	0.96578735
172	0x3f7ceec2	0.98801816
173	0x3f820b7a	1.0159752
174	0x3f73915e	0.9514369
175	0x3f81d9e2	1.0144618
176	0x3f788100	0.9707184
177	0x3f7bd2fd	0.9836882
178	0x3f7882de	0.9707469
179	0x3f8081a0	1.0039558
180	0x3f81d0ee	1.0141885
181	0x3f846a1b	1.0344881
182	0x3f751eaf	0.95749944
183	0x3f7fabd5	0.9987157
184	0x3f7fae76	0.9987558
185	0x3f83f68b	1.0309614
186	0x3f727fdc	0.9472635
187	0x3f838954	1.0276284
188	0x3f835878	1.0261374
189	0x3f7277ac	0.94713855
190	0x3f7651b0	0.96218395
191	0x3f8340ac	1.0254111
192	0x3f885751	1.0651647
193	0x3f7eaf86	0.9948658
194	0x3f803811	1.001711
195	0x3f745b2d	0.95451623
196	0x3f7d59a6	0.9896492
197	0x3f82e66b	1.0226568
198	0x3f81e01a	1.0146515
199	0x3f832f5e	1.024883
200	0x3f7de073	0.9917061
201	0x3f7dea97	0.9918608
202	0x3f79f20c	0.9763496
203	0x3f7e072a	0.9922968
204	0x3f7ca23b	0.98685044
205	0x3f7988cd	0.97474366
206	0x3f7d1cc5	0.98872024
207	0x3f7f8f4e	0.9982804
208	0x3f84b981	1.0369111
209	0x3f836334	1.0264649
210	0x3f77dd02	0.96821606
211	0x3f82c68c	1.0216842
212	0x3f832ea6	1.0248611
213	0x3f82ec13	1.0228294
214	0x3f814a8b	1.0100874
215	0x3f7e4b7a	0.9933392
216	0x3f83dc83	1.030167
217	0x3f852616	1.0402248
218	0x3f818439	1.0118476
219	0x3f764dcd	0.96212465
220	0x3f7efacb	0.9960143
221	0x3f7e2f6e	0.9929112
222	0x3f819d8e	1.0126207
223	0x3f8822c1	1.0635606
224	0x3f6dcf47	0.92894405
225	0x3f7a6220	0.97805977
226	0x3f7d8955	0.9903768
227	0x3f870ef2	1.0551436
228	0x3f80ac11	1.005251
229	0x3f808177	1.003951
230	0x3f86c125	1.0527693
231	0x3f75304e	0.9577683
232	0x3f825aee	1.0184
233	0x3f7bf170	0.9841528
234	0x3f7f61a1	0.99758345
235	0x3f80469d	1.002155
236	0x3f876c72	1.057997
237	0x3f7565eb	0.9585864
238	0x3f8183ea	1.0118382
239	0x3f7bc232	0.98343194
240	0x3f82038d	1.0157334
241	0x3f80525f	1.0025138
242	0x3f7ae7cf	0.9800996
243	0x3f7d7d21	0.99019057
244	0x3f71c736	0.94444597
245	0x3f7cf75c	0.9881494
246	0x3f7e2b52	0.9928485
247	0x3f80a8d1	1.0051519
248	0x3f87ee90	1.0619678
249	0x3f8aa8a9	1.0832721
250	0x3f7efee2	0.9960767
251	0x3f813bb9	1.0096351
252	0x3f7f2924	0.9967215
253	0x3f83ccbd	1.0296856
254	0x3f876eb9	1.0580665
255	0x3f84bbc4	1.0369802

bn1.beta f4 [256]
0	0xbd264f1f	-0.0406028
1	0xbd4c6d0a	-0.049908675
2	0xbd9bf005	-0.076141395
3	0xbc8f36a6	-0.017482113
4	0xbbbb16c1	-0.0057094996
5	0xbd9fc820	-0.07801843
6	0xbd26e581	-0.040746216
7	0xbd0916c9	-0.033468995
8	0xbd93fde1	-0.07226158
9	0xbcc0e6b1	-0.023547502
10	0xbcfd566c	-0.030924998
11	0x39ec912b	0.00045121586
12	0xbd3bf837	-0.045891013
13	0xbd4d0e07	-0.050062206
14	0xbbe449e8	-0.006966818
15	0x3c8bd1cd	0.017067814
16	0xbd8d183f	-0.0688939
17	0xbcb0e275	-0.021592358
18	0xbd357eae	-0.044310264
19	0xbcd6d49b	-0.026224425
20	0xbd1e7e4f	-0.038694676
21	0xbd5d16c8	-0.053976804
22	0xbb1d9883	-0.0024047203
23	0xbc2b0517	-0.010438225
24	0xbd9a13e5	-0.07523326
25	0xbd931b0f	-0.071828954
26	0xbbdd4add	-0.006753309
27	0xbd9c8127	-0.07641821
28	0xbc8dac49	-0.017294066
29	0xbcd3509e	-0.025795277
30	0xbd70d71c	-0.058798894
31	0xbda44e8b	-0.080227934
32	0xbd699890	-0.05703026
33	0xbd40b0f4	-0.047043756
34	0xbc88ee9b	-0.016715338
35	0xbdacbdc9	-0.08434636
36	0xbbbbc903	-0.0057307496
37	0xbccc3a6c	-0.024930201
38	0xbc7e3966	-0.015516615
39	0xbd4e4d80	-0.05036688
40	0x3d334480	0.0437665
41	0xbd174024	-0.036926404
42	0xbd24fc48	-0.040279657
43	0xbd226855	-0.03965028
44	0xbcbbcd25	-0.022924969
45	0xbda07b28	-0.0783599
46	0xbd0c77a3	-0.034293782
47	0xbd5259ef	-0.0513553
48	0xbd1a0f21	-0.037612084
49	0xbc956ea6	-0.018241238
50	0xbc69f32c	-0.014279168
51	0xbbfbefb6	-0.007688488
52	0x3b6ad9a7	0.0035835297
53	0xbd516244	-0.051119104
54	0xbd15064e	-0.036382966
55	0xbd170058	-0.036865562
56	0xbd544822	-0.051826604
57	0xbc928f6f	-0.01789066
58	0x3cbfa4c1	0.02339399
59	0x3c2ce046	0.010551518
60	0xbd8f8c58	-0.0700919
61	0xbca12ced	-0.019674743
62	0xbd03a353	-0.03213818
63	0xbcfd1849	-0.03089537
64	0xbd61315b	-0.05497871
65	0xbd8e6129	-0.069521256
66	0x3b880844	0.004151376
67	0xbd47895f	-0.04871499
68	0xbc8931ed	-0.01674744
69	0xbd6b252b	-0.057408493
70	0xbdce4039	-0.10070843
71	0xbd4aa5c5	-0.049474496
72	0xbdac2639	-0.08405728
73	0xbd0b92b2	-0.034075446
74	0xbcb88b21	-0.02252728
75	0xbc66f12e	-0.014095588
76	0xbd1e677b	-0.038672905
77	0xbcc13086	-0.023582708
78	0x3ca5ebe5	0.020254085
79	0xbd068f33	-0.03285141
80	0xbd26979f	-0.04067194
81	0xbcb0739e	-0.021539506
82	0xbd48848e	-0.04895454
83	0xbdd6d7d7	-0.10490387
84	0xbd896c12	-0.06710066
85	0xbd6274da	-0.05528722
86	0xbd794940	-0.060860872
87	0x3c5077f5	0.0127239125
88	0x3ba63fc1	0.005073518
89	0xbd89b151	-0.067232735
90	0xbcd696a9	-0.026194887
91	0xbd42bdc7	-0.047544267
92	0xbd2170b9	-0.03941414
93	0xbd9a6465	-0.0753868
94	0xbd14b266	-0.036302947
95	0x3bd9deeb	0.0066488883
96	0xbd7b5a2e	-0.0613653
97	0xbd2cb4d7	-0.04216465
98	0xbd183285	-0.037157554
99	0x3c81729a	0.015801717
100	0x3a85cf82	0.0010208937
101	0xbda68f8e	-0.0813285
102	0xbd07df26	-0.033171795
103	0xbd99a3d2	-0.07501949
104	0xbd9063dd	-0.070502974
105	0xbdb2d00b	-0.08731087
106	0xbd3e1aff	-0.046412464
107	0xbc1a0a9a	-0.009401942
108	0xbd0d9a70	-0.03457111
109	0xbd703c3d	-0.058651198
110	0x3ca9db45	0.020734439
111	0xbcf835c4	-0.030299075
112	0xbc8fdb04	-0.01756049
113	0x3c4ba178	0.012428634
114	0xbce32d90	-0.027731687
115	0xbc6ea2c2	-0.014565172
116	0xbd75f940	-0.060052156
117	0xbd421b0b	-0.04738907
118	0xbd13670f	-0.035986956
119	0xbd5e5f52	-0.054290123
120	0xbc95f7e8	-0.018306687
121	0xbc51768d	-0.012784612
122	0xbc8c25e3	-0.01710791
123	0xbc74c145	-0.014938657
124	0xbba2ef6a	-0.004972388
125	0x3bc5d78d	0.0060376585
126	0xbd13ca1b	-0.036081415
127	0xbc46b2bc	-0.0121275745
128	0x3cf2b305	0.029626379
129	0xbcd19c32	-0.025587175
130	0xbd1240a2	-0.03570617
131	0xbce71aaf	-0.028210966
132	0x3b7c3e95	0.003848945
133	0xbc11caa3	-0.00889841
134	0xbcc99920	-0.024609149
135	0xbd94d61e	-0.07267402
136	0xbc2f28ad	-0.01069085
137	0xbc6a322f	-0.014294191
138	0xbd3bbfd1	-0.045837227
139	0x3a72777c	0.0009249372
140	0xbd2e3ffd	-0.042541493
141	0xbc764cac	-0.015032928
142	0xbcbac86e	-0.02280065
143	0xbc870e2b	-0.016486248
144	0xbdcaf965	-0.099108495
145	0xbdaae187	-0.08343797
146	0x3c01914c	0.007908177
147	0xbd2237f3	-0.03960414
148	0xbd308373	-0.04309411
149	0xbd86e3de	-0.06586431
150	0xbd6fbaad	-0.058527637
151	0xbd117f0a	-0.035521545
152	0x3cd5c79d	0.02609616
153	0xbd8c13ae	-0.06839691
154	0xbda4ab01	-0.08040429
155	0xbcf17a83	-0.029477363
156	0xbda6432a	-0.08118279
157	0xbbe8134b	-0.007082378
158	0xbd2fda33	-0.0429327
159	0xbd65de15	-0.056119997
160	0xbdd66bf5	-0.1046981
161	0xbb26c5f1	-0.0025447572
162	0xbd8f5029	-0.06997711
163	0xbd3c8f5e	-0.046035163
164	0xbd40ae96	-0.047041498
165	0xbd792111	-0.06082255
166	0xbd123efe	-0.035704605
167	0xbd90356b	-0.07041439
168	0xbcaa70cf	-0.020805744
169	0xbbca2461	-0.0061688875
170	0xbdb4a1d7	-0.08819931
171	0x39814fc3	0.00024664224
172	0xbd14b430	-0.036304653
173	0xbd36343b	-0.044483405
174	0xbd3ad8cd	-0.045616914
175	0xbe055873	-0.13022022
176	0x3c0636b9	0.008191758
177	0x3c15bada	0.009138787
178	0xbd35600b	-0.044281047
179	0xbcaaceae	-0.020850506
180	0xbcb88641	-0.022524955
181	0xbbf0dce5	-0.0073505514
182	0xbd579bc5	-0.052638788
183	0xbd31a461	-0.043369655
184	0xbcbe1598	-0.023203656
185	0x3ba04568	0.0048910864
186	0xbcd74708	-0.026278988
187	0xbd2edc09	-0.04269031
188	0xbbceaf65	-0.0063075298
189	0xbd9ed08d	-0.07754622
190	0xbd0afe0f	-0.033933695
191	0xbd03306a	-0.032028593
192	0xbcaa97dc	-0.020824365
193	0xbdd1647d	-0.10224245
194	0xbcd8d3ca	-0.026468176
195	0xbdd27ba8	-0.10277492
196	0xbc833e05	-0.016020784
197	0xbd2f1458	-0.04274401
198	0x3c94d717	0.01816897
199	0xbccfce6c	-0.025366984
200	0x3b9732a7	0.0046141925
201	0xbd2c7b8f	-0.042110022
202	0xbd63ede6	-0.0556468
203	0xbdeb409b	-0.11486932
204	0xbd685730	-0.056723773
205	0xbc79529b	-0.015217449
206	0xbc9e4fab	-0.019325098
207	0xbceba1f2	-0.028763745
208	0xbc942c6d	-0.01808759
209	0xbe0392a5	-0.12848909
210	0xbc753307	-0.014965779
211	0xbcb1355d	-0.02163189
212	0xbcdb5f26	-0.026778769
213	0xba811e81	-0.000985101
214	0xbd52572a	-0.051352657
215	0xbd324865	-0.043526072
216	0x3bebe5a7	0.0071990076
217	0xbcb14c8f	-0.021642951
218	0xbcfae62c	-0.030627333
219	0xbcd69f49	-0.026199
220	0xbd5ccebe	-0.053908102
221	0xbca8ecdd	-0.020620758
222	0xbd79eefe	-0.061018936
223	0xbd302ba6	-0.043010376
224	0xbd537ae5	-0.051630873
225	0xbc7c02e8	-0.015381552
226	0xbd82c1c7	-0.06384616
227	0x3b2e4836	0.0026593334
228	0x3ae9bb7e	0.0017832366
229	0xbc694472	-0.01423751
230	0xbd3a7bb3	-0.045528125
231	0xbd785fd7	-0.060638275
232	0xbd23fc61	-0.04003561
233	0xbca90331	-0.020631405
234	0xbaec6330	-0.0018034931
235	0xbda277bd	-0.079329945
236	0xbc01ad28	-0.007914819
237	0xbd12308b	-0.035690825
238	0xbd3516a4	-0.044211045
239	0xbd1cc252	-0.038271256
240	0x3c90f373	0.01769421
241	0xbd2cd253	-0.04219277
242	0xbcea49f0	-0.02859971
243	0xbc725f1e	-0.0147931855
244	0xbdaa3d49	-0.083124705
245	0xbcf82639	-0.030291663
246	0xbcf65150	-0.03006807
247	0xbd657c05	-0.056026477
248	0xbc946136	-0.01811276
249	0xbde5b9cc	-0.112170786
250	0x3a6bd610	0.00089964364
251	0xbcc7db19	-0.024396466
252	0xbd28b5a2	-0.041188844
253	0xbd959fdd	-0.07305882
254	0xbb25ab1e	-0.0025278996
255	0xbd8dc423	-0.06922176

fc2.weight f4 [256, 128]
0	0x3d0cfe49	0.034422193
1	0x3d2083dc	0.03918825
2	0x3d82a79f	0.063796274
3	0xbc30c09e	-0.010788111
4	0x3e095142	0.13409904
5	0xbc8f2f21	-0.017478528
6	0x3df4f28c	0.11960325
7	0xbd99ccc3	-0.07509758
8	0xbd1ecd96	-0.03877028
9	0x39ec8826	0.00045114866
10	0x3df538df	0.11973738
11	0x3c675e59	0.014121615
12	0xbd8ede1f	-0.0697596
13	0xbdbc7898	-0.09202689
14	0x3da397b8	0.079879224
15	0x3d405b47	0.04696205
16	0xbdceaa61	-0.10091091
17	0xbc99db8e	-0.01878145
18	0xbdcfefd7	-0.10153168
19	0xbda948f6	-0.08265869
20	0x3dd1d3ff	0.10245513
21	0xbdcdd4dd	-0.10050366
22	0xbc697232	-0.014248418
23	0xbda02141	-0.07818843
24	0x3ba7e539	0.005123761
25	0xbd38e8d8	-0.045143932
26	0x3e0db484	0.13838392
27	0xbdc803fc	-0.09766385
28	0xbc80f8c2	-0.015743617
29	0xbdead8e1	-0.114671476
30	0x3de77339	0.11301274
31	0xbdad36c5	-0.08457712
32	0xbdfa2b64	-0.12215307
33	0xbdc1bc40	-0.09459734
34	0xbe085af6	-0.13315949
35	0xbd36b764	-0.04460849
36	0x3ca886f3	0.020572161
37	0x3d7d89a0	0.061898828
38	0x3e1189ac	0.14212674
39	0xbdb5df0f	-0.08880436
40	0x3d25ea2e	0.040506534
41	0xbd93933d	-0.07205818
42	0xbd720f38	-0.059096545
43	0x3de4829d	0.11157725
44	0xbe12d33c	-0.14338392
45	0xbd3206ff	-0.043463703
46	0xbdd8a560	-0.10578418
47	0x3ded48dd	0.11586163
48	0xbe0fc500	-0.14039993
49	0xbcae2315	-0.021256963
50	0x3cec47f5	0.028842906
51	0x3ccaa3fc	0.024736397
52	0x3cb78ed5	0.022406975
53	0x3e3f32fd	0.18671794
54	0x3dca3053	0.09872498
55	0x3cdf2000	0.027236938
56	0xbd849b49	-0.06474931
57	0x3e119b65	0.14219435
58	0x3dd0c3f3	0.10193624
59	0x3c9c4676	0.019076567
60	0xbdeb4e09	-0.114894934
61	0x3d97a762	0.074049726
62	0x3e0affe1	0.13574173
63	0xbd7fcc96	-0.062450968
64	0xbdd42331	-0.10358275
65	0xbdb96948	-0.09053284
66	0x3e11961f	0.14217423
67	0x3d9a7e28	0.07543594
68	0xbe198d53	-0.14995317
69	0xbdc11d76	-0.09429447
70	0x3dc4816b	0.09594997
71	0xbd585f68	-0.05282536
72	0x3ddd68e0	0.10811019
73	0xbdaaea7e	-0.08345507
74	0xbd9b628f	-0.07587158
75	0xbdafeaba	-0.085896924
76	0x3e016aa8	0.12638342
77	0xbcec89a8	-0.028874233
78	0xbc856cd8	-0.016287252
79	0xbca46016	-0.020065349
80	0xbbd6f243	-0.0065596416
81	0xbd9d8502	-0.07691385
82	0x3c80a689	0.01570441
83	0x3cb23721	0.021754803
84	0x3d71f824	0.059074536
85	0x3d234858	0.039863914
86	0xbdd42ff3	-0.10360708
87	0x3e29a5e4	0.16567189
88	0x3d8af547	0.06785064
89	0x3d827e67	0.063717656
90	0x3dd25673	0.10270395
91	0xbdf00894	-0.11720386
92	0x3d030c39	0.03199408
93	0xbc985cf3	-0.01859901
94	0xbd4f808c	-0.0506597
95	0xbccb6f97	-0.024833484
96	0xbd669b75	-0.0563006
97	0x3dbb18a6	0.09135561
98	0xbda00ecb	-0.078153215
99	0xbd128c17	-0.03577813
100	0xbbdab63b	-0.0066745556
101	0xbc6a8502	-0.014313938
102	0xbcd7835b	-0.026307752
103	0xbb60d3f0	-0.0034306012
104	0x3c46c816	0.012132665
105	0x3d8c84ce	0.06861268
106	0x3e16cd84	0.14726835
107	0x3cdca392	0.026933465
108	0xbdcc7956	-0.099840805
109	0x3e07ce75	0.13262351
110	0xbda7e348	-0.08197647
111	0x3d2aa5e5	0.041662116
112	0x3cca1044	0.02466596
113	0xbc74c3cb	-0.014939259
114	0x3dafc5dd	0.08582661
115	0xbda31c51	-0.07964385
116	0xba880588	-0.0010377625
117	0x3b9af827	0.004729289
118	0x3da068b7	0.07832473
119	0x3d312565	0.043248553
120	0x3c3c2911	0.0114844
121	0xbcbb5832	-0.022869203
122	0x3d4b3276	0.04960867
123	0x3b916413	0.0044369786
124	0xbdc6a23a	-0.09698911
125	0x3ddbb6c9	0.10728223
126	0xbe034aed	-0.1282155
127	0xbc907ad7	-0.0176367
128	0xbcca7f40	-0.02471888
129	0xbb4dd617	-0.0031408125
130	0x3c90a2fa	0.017655838
131	0xbe1f90c1	-0.15582563
132	0xbdad490a	-0.08461197
133	0x3d79dd34	0.06100197
134	0xbdb1f6ba	-0.086896375
135	0xbd80d788	-0.06291109
136	0x3cc9a3a0	0.024614155
137	0x3d870bea	0.06594069
138	0xbd4bf666	-0.04979553
139	0x3dba2f09	0.090910025
140	0x3e1c866c	0.15285653
141	0x3cdd40c3	0.02700842
142	0xbc4c0eb4	-0.012454677
143	0xbdbc4e13	-0.09194579
144	0x3e26a183	0.1627255
145	0xbdf2d7e5	-0.11857585
146	0x3d9cfd7e	0.07665537
147	0x3d9c030e	0.0761777
148	0x3d41e669	0.047338877
149	0xbdd3741e	-0.10324882
150	0xbd5365b3	-0.05161066
151	0xbddd5663	-0.108074926
152	0x3d70adbc	0.058759436
153	0x3daa1311	0.08304418
154	0xbe0984bb	-0.13429539
155	0xbd36bee5	-0.044615645
156	0xbddd7bc2	-0.108146206
157	0xbd0a1028	-0.033706814
158	0x3d3f2fa9	0.04667631
159	0x3d89ad7d	0.067225434
160	0x3d2a7552	0.04161579
161	0x3d6655d8	0.05623421
162	0x3d1a3554	0.037648514
163	0x3c8d140a	0.01722147
164	0xbd8bf855	-0.06834475
165	0xbdb5a8b5	-0.08870069
166	0xbc6df70c	-0.014524233
167	0x3cf60963	0.030033773
168	0x3d26869f	0.04065573
169	0xbcfc66a2	-0.030810658
170	0xba7210f6	-0.0009234095
171	0x3d36ed7d	0.04466008
172	0x3ceb7e87	0.028746856
173	0xbdb49691	-0.08817781
174	0x3e1aff6a	0.15136495
175	0xbe24e2d0	-0.16102147
176	0xbd8f6892	-0.07002367
177	0x3d107812	0.035270758
178	0xbd5fba0b	-0.054620784
179	0xbe1c56d8	-0.15267503
180	0x3d978d4c	0.07399997
181	0xbd7b2848	-0.061317712
182	0x3b10e0f7	0.0022106746
183	0xbdc6055f	-0.09668993
184	0x3caada00	0.020855904
185	0x3d9ab679	0.07554335
186	0xbdad787e	-0.08470248
187	0xbe32795a	-0.17429104
188	0xbe1adc35	-0.15123065
189	0xbd74549b	-0.059651
190	0xbd313531	-0.043263618
191	0xbd1d28f5	-0.038369138
192	0x3dab36db	0.08360072
193	0x3e005c1e	0.1253514
194	0x3dac666f	0.08417975
195	0x3cb5e955	0.022205988
196	0x3d0fcc8d	0.035107184
197	0x3c2f4ee7	0.010699964
198	0x3dea6743	0.11445477
199	0xbdb1985f	-0.086716406
200	0xbd8693cd	-0.065711595
201	0xbc81bcdb	-0.015837124
202	0xbd53204f	-0.051544484
203	0x3de66981	0.11250592
204	0xbda93fce	-0.08264123
205	0xbc15c73e	-0.009141741
206	0x3dd8c3ef	0.10584246
207	0xbe0fd337	-0.14045416
208	0x3d8eff2e	0.069822654
209	0xbd957716	-0.072981045
210	0x3d9f9645	0.077923335
211	0xbc17bd57	-0.009261451
212	0x3b0ad646	0.0021184846
213	0x3da6fa22	0.08153178
214	0xbc695844	-0.014242236
215	0x3dd861c8	0.10565525
216	0xbde39f99	-0.11114425
217	0x3c7ed584	0.015553836
218	0x3d637354	0.055529907
219	0xbded8be6	-0.11598949
220	0x3db67f2e	0.08910976
221	0x3dde3134	0.108492285
222	0x3a8cbba9	0.001073708
223	0x3cf9afe2	0.030479375
224	0xbc9359b3	-0.017987108
225	0x3df08098	0.11743277
226	0xbde178cc	-0.11009368
227	0x3dba2f9c	0.09091112
228	0x3de6930b	0.11258515
229	0x3d4ad380	0.04951811
230	0x3ca31766	0.019908618
231	0xbc82f754	-0.015987076
232	0x3e089cf5	0.13341124
233	0x3e0a9cbc	0.13536352
234	0xbd98369c	-0.07432291
235	0xbe0f1d67	-0.1397606
236	0xbcc503ae	-0.024049606
237	0x3dc85c97	0.09783285
238	0x3baa0fe8	0.0051898845
239	0xbdc3ccbe	-0.09560536
240	0xbbc351a3	-0.0059606596
241	0xb90dd9c0	-0.00013527926
242	0x3d7c6c12	0.0616265
243	0x3df6edb6	0.120570585
244	0xbd9823c4	-0.07428697
245	0xbdcc8d8f	-0.09987938
246	0xbe0ac84e	-0.13552973
247	0xbdeebab3	-0.11656704
248	0x3e000aa8	0.12504065
249	0xbd8fae25	-0.07015637
250	0xbe220264	-0.15821224
251	0x3d7298f4	0.0592279
252	0x3d212eb1	0.03935117
253	0xbcba0284	-0.022706278
254	0xbd5d8614	-0.054082945
255	0xbcd206ae	-0.02563795

fc2.bias f4 [128]
0	0x31afeea1	5.1202993e-09
1	0xb1a3c371	-4.7661435e-09
2	0xb29747db	-1.761139e-08
3	0xb0de4fae	-1.6175272e-09
4	0x30f75e14	1.7998354e-09
5	0x30e64507	1.6754321e-09
6	0x30963842	1.0929926e-09
7	0xb1374205	-2.6667533e-09
8	0x32f01438	2.7948872e-08
9	0xb228d9da	-9.828421e-09
10	0xb1770fbf	-3.5952181e-09
11	0x31ac617f	5.016943e-09
12	0xb1ab3f82	-4.983975e-09
13	0x31422ad4	2.825506e-09
14	0x328dbb9c	1.6499875e-08
15	0xb21afbf8	-9.021271e-09
16	0x318dd3f5	4.127737e-09
17	0xb0b80801	-1.3390037e-09
18	0xb078b28e	-9.0475616e-10
19	0xb2512961	-1.217481e-08
20	0xb2267de4	-9.691096e-09
21	0x30aea409	1.2706788e-09
22	0xb129613a	-2.4648004e-09
23	0xb27ef543	-1.4840512e-08
24	0x32126d76	8.523207e-09
25	0xb23b3ffe	-1.0899383e-08
26	0xb1a852f9	-4.8988764e-09
27	0x30d1fe1c	1.5278974e-09
28	0x31821498	3.785839e-09
29	0xb2224311	-9.44489e-09
30	0x31ab0f61	4.9785034e-09
31	0xb10a4cb3	-2.0125241e-09
32	0xb182983e	-3.800806e-09
33	0x31af69cd	5.1051985e-09
34	0xb14a846c	-2.9470142e-09
35	0x31e1870e	6.563716e-09
36	0x3184af2f	3.8616217e-09
37	0xb1436b15	-2.8437104e-09
38	0x31bbb9b1	5.463527e-09
39	0x3168f5db	3.3900196e-09
40	0xb1908f11	-4.2072164e-09
41	0x31bf654a	5.570347e-09
42	0x3244f483	1.1464297e-08
43	0xb246ae7d	-1.1564791e-08
44	0xafc78b78	-3.6296988e-10
45	0xb2662bed	-1.339775e-08
46	0x32763da5	1.4333101e-08
47	0x31d78498	6.2723977e-09
48	0x310b5a52	2.0278503e-09
49	0x323130fc	1.0313894e-08
50	0xb2af3116	-2.0395003e-08
51	0xaf2e50ae	-1.5853871e-10
52	0x315867e7	3.1491199e-09
53	0x3103b279	1.916446e-09
54	0xb18526fd	-3.875242e-09
55	0x3301c73d	3.021636e-08
56	0x313a0b61	2.707303e-09
57	0x328b9ece	1.6253946e-08
58	0xb2166dce	-8.756116e-09
59	0xb245cea1	-1.1513891e-08
60	0xb205d86c	-7.7908275e-09
61	0xb1b13a62	-5.1580153e-09
62	0xb2516c8a	-1.219008e-08
63	0xb0f4101e	-1.7757917e-09
64	0x307aed12	9.128637e-10
65	0xb22bf7c7	-1.0009848e-08
66	0xb1b5f0fc	-5.29519e-09
67	0xb194d4cf	-4.3315604e-09
68	0xb0eb2f62	-1.7111967e-09
69	0x323bd1c6	1.09325295e-08
70	0x3123b4eb	2.3822462e-09
71	0x322576da	9.631288e-09
72	0xb16ecdcc	-3.475054e-09
73	0xb2838dda	-1.5314914e-08
74	0xb0a73182	-1.216492e-09
75	0xb29edf99	-1.8495301e-08
76	0x31e080aa	6.5338854e-09
77	0x30e64bee	1.6756283e-09
78	0x31bc7d74	5.4857825e-09
79	0xb24f30cf	-1.2060084e-08
80	0xb1e89a69	-6.769643e-09
81	0x321a83f1	8.99398e-09
82	0x318c1bd9	4.077702e-09
83	0x31b0446b	5.1300524e-09
84	0xb048b2eb	-7.3013834e-10
85	0x31b88997	5.370747e-09
86	0x3286c44b	1.5688917e-08
87	0xb1db9de4	-6.391689e-09
88	0x323dc461	1.1045899e-08
89	0x3203aa88	7.663978e-09
90	0x32a256c5	1.889874e-08
91	0x316dc40d	3.459948e-09
92	0xb0cb5678	-1.479477e-09
93	0x320b8ee6	8.123356e-09
94	0xb220d561	-9.3617425e-09
95	0x325b949c	1.2781268e-08
96	0x32065863	7.819923e-09
97	0x32e260b9	2.6353847e-08
98	0x30f5bbe7	1.7879501e-09
99	0x31c6582b	5.772582e-09
100	0x3185ff45	3.8998302e-09
101	0x3117f1cd	2.211084e-09
102	0x3162cb60	3.3002934e-09
103	0x3294b26b	1.7310603e-08
104	0xb13ce683	-2.7488631e-09
105	0xb173907f	-3.544329e-09
106	0x315e884f	3.2382734e-09
107	0xb2206015	-9.335072e-09
108	0x302635e0	6.046701e-10
109	0x326a8836	1.3651563e-08
110	0x31407d50	2.801091e-09
111	0x3244e836	1.14615e-08
112	0xb158c7b8	-3.1545664e-09
113	0x318d8f1b	4.1199093e-09
114	0x305c421a	8.012947e-10
115	0x32303e8e	1.0258772e-08
116	0xb1ff480e	-7.4296684e-09
117	0xb220ab9c	-9.352245e-09
118	0xb2b6625e	-2.123232e-08
119	0xb236efe4	-1.0648339e-08
120	0xb27a4ca6	-1.4569343e-08
121	0xb1af10ef	-5.0950955e-09
122	0xb1f261d7	-7.05425e-09
123	0x327fc05d	1.4886692e-08
124	0x322b249a	9.961832e-09
125	0xb183007c	-3.812657e-09
126	0xb284fb91	-1.5481222e-08
127	0xb21b100b	-9.025835e-09

bn2.gamma f4 [128]
0	0x3f7b519b	0.98171395
1	0x3f7c5980	0.98574066
2	0x3f8afe36	1.0858829
3	0x3f7e6d56	0.99385583
4	0x3f849400	1.0357666
5	0x3f7d11c8	0.9885526
6	0x3f768f02	0.9631196
7	0x3f7e6b4e	0.99382484
8	0x3f84d426	1.0377243
9	0x3f867341	1.0503923
10	0x3f7e7da5	0.9941047
11	0x3f79273f	0.9732551
12	0x3f810bdf	1.0081748
13	0x3f7b37e7	0.98132175
14	0x3f8096ef	1.0046061
15	0x3f809d21	1.0047952
16	0x3f7a93e6	0.97881925
17	0x3f856a40	1.042305
18	0x3f774b0a	0.96598876
19	0x3f78ead6	0.9723333
20	0x3f779f94	0.9672787
21	0x3f76dd0a	0.9643103
22	0x3f802ffd	1.0014645
23	0x3f7cdb07	0.9877171
24	0x3f844a3c	1.0335155
25	0x3f780a83	0.9689104
26	0x3f8aa6d9	1.0832168
27	0x3f7b87fb	0.98254365
28	0x3f8397de	1.0280721
29	0x3f78f3b3	0.97246855
30	0x3f7ea4e7	0.9947037
31	0x3f7f7ee2	0.9980298
32	0x3f7ce82c	0.98791766
33	0x3f778bec	0.9669788
34	0x3f7fef11	0.9997416
35	0x3f7e987b	0.99451417
36	0x3f80cd9a	1.0062745
37	0x3f848152	1.0351965
38	0x3f864deb	1.0492529
39	0x3f76c3eb	0.963927
40	0x3f8390f1	1.0278608
41	0x3f81358e	1.0094469
42	0x3f73b191	0.9519282
43	0x3f8c75e5	1.0973479
44	0x3f819037	1.0122136
45	0x3f843308	1.0328074
46	0x3f81471b	1.0099825
47	0x3f80c55a	1.0060227
48	0x3f7a387f	0.97742456
49	0x3f84a0cf	1.0361575
50	0x3f813327	1.0093735
51	0x3f8483a2	1.0352671
52	0x3f7d15ca	0.9886137
53	0x3f892288	1.0713663
54	0x3f76701d	0.9626482
55	0x3f826945	1.0188376
56	0x3f763464	0.9617369
57	0x3f865247	1.0493859
58	0x3f786533	0.9702942
59	0x3f84b5d8	1.0367994
60	0x3f7ac16b	0.9795138
61	0x3f7c3b80	0.9852829
62	0x3f770ba5	0.96502143
63	0x3f6d112f	0.92604345
64	0x3f6fdd45	0.93697006
65	0x3f83475f	1.0256156
66	0x3f7a30dd	0.9773081
67	0x3f821ea1	1.0165597
68	0x3f7e7376	0.9939493
69	0x3f83fbbd	1.03112
70	0x3f7b52ee	0.98173416
71	0x3f73555d	0.9505213
72	0x3f816cc4	1.0111318
73	0x3f7bc643	0.983494
74	0x3f7cc612	0.9873973
75	0x3f7d1378	0.9885783
76	0x3f75c304	0.96000695
77	0x3f8134e0	1.0094261
78	0x3f780d69	0.9689546
79	0x3f7604bd	0.9610098
80	0x3f7d90d2	0.99049103
81	0x3f8175ed	1.0114113
82	0x3f80f0c1	1.0073472
83	0x3f7f58b4	0.99744725
84	0x3f79cdea	0.97579825
85	0x3f84c53c	1.0372691
86	0x3f7d94ed	0.9905537
87	0x3f820d12	1.0160239
88	0x3f7c75c0	0.9861717
89	0x3f7b0e23	0.98068446
90	0x3f82e938	1.0227423
91	0x3f7ebd98	0.9950805
92	0x3f74861b	0.9551713
93	0x3f835300	1.0259705
94	0x3f80aef7	1.0053395
95	0x3f80f2ae	1.007406
96	0x3f781dae	0.9692029
97	0x3f7f9303	0.998337
98	0x3f844b1d	1.0335423
99	0x3f770dff	0.9650573
100	0x3f8242dc	1.0176654
101	0x3f840205	1.0313116
102	0x3f80e7d2	1.0070746
103	0x3f7cb479	0.9871288
104	0x3f7c0f56	0.984609
105	0x3f7fe076	0.99951875
106	0x3f852407	1.040162
107	0x3f8bb9de	1.0916097
108	0x3f7ee4ce	0.9956788
109	0x3f842661	1.0324212
110	0x3f86142d	1.0474907
111	0x3f81cc52	1.0140479
112	0x3f8147ef	1.0100077
113	0x3f7724b8	0.96540403
114	0x3f77a01b	0.96728677
115	0x3f75a4b9	0.9595447
116	0x3f78e1c5	0.97219497
117	0x3f825a1d	1.018375
118	0x3f86eaaf	1.054037
119	0x3f81477e	1.0099943
120	0x3f7e5a26	0.99356306
121	0x3f7b8f98	0.9826598
122	0x3f83fdc9	1.0311824
123	0x3f7b715f	0.98219866
124	0x3f819c94	1.0125909
125	0x3f7c4eb9	0.9855762
126	0x3f7dccd3	0.9914066
127	0x3f8107b6	1.0080478

bn2.beta f4 [128]
0	0xbb56c912	-0.0032773656
1	0xbd9c65f3	-0.07636633
2	0x3cdbc969	0.026829438
3	0xbd7a599a	-0.061120607
4	0xbd196fc9	-0.037460122
5	0x3c63c0dc	0.013900962
6	0xbcaf9263	-0.021432107
7	0x3c6ce33e	0.014458476
8	0x3d20c764	0.039252654
9	0x3ceb282f	0.028705684
10	0x3a370fa7	0.00069832284
11	0x3aaa28f1	0.0012982172
12	0x3c6f047a	0.01458847
13	0x3cc8f51c	0.02453094
14	0xbcfc73df	-0.03081697
15	0x3bbf1015	0.0058307745
16	0xbd6f0a53	-0.058359455
17	0x3cf38a49	0.029729025
18	0xbd3e8c18	-0.046520323
19	0xbd2e3e3c	-0.04253982
20	0xbd076db8	-0.03306362
21	0x3b5260ee	0.0032101232
22	0x3d2ab3b9	0.041675303
23	0x3d96ed0b	0.07369431
24	0x3c5a4718	0.013322614
25	0xbd5cc9e5	-0.05390348
26	0xbc8121a0	-0.015763104
27	0xbc6cf2ff	-0.014462232
28	0xbbccac5d	-0.0062461332
29	0xbb9a03db	-0.0047001666
30	0x3bf6d82e	0.007533095
31	0xbd30de94	-0.043181017
32	0x3c376e11	0.0111956755
33	0x3c85d257	0.01633565
34	0xbd44e07a	-0.04806564
35	0xbcf17a80	-0.029477358
36	0xbd03c8bd	-0.03217386
37	0xbb23d386	-0.0024997904
38	0xbd656307	-0.056002643
39	0xbd7ce3c7	-0.061740663
40	0xbd5deccc	-0.054180905
41	0xbbd13510	-0.0063844994
42	0xbd9e2693	-0.07722201
43	0x3cf35956	0.029705685
44	0x3d82d357	0.06387966
45	0xbc4f16ee	-0.012639744
46	0x3d9d56ca	0.07682569
47	0xbcd54ad0	-0.02603665
48	0xbcd42b21	-0.025899472
49	0x3d4d7583	0.050160896
50	0xbb71101a	-0.003678328
51	0xbb756e53	-0.0037449792
52	0x3cbbaf7e	0.02291083
53	0xbd0c4f73	-0.034255456
54	0x3b9bec44	0.0047583897
55	0xbb872691	-0.0041244705
56	0xbd20fb22	-0.039302
57	0x3d04df19	0.032439325
58	0xbbfec2e8	-0.0077746995
59	0xbd05b9db	-0.03264795
60	0xbd39bc23	-0.045345437
61	0xbd32ee70	-0.043684423
62	0xbdf40c30	-0.11916387
63	0xbda886d4	-0.082288414
64	0xbd9c30d7	-0.07626503
65	0xbcc1e20e	-0.023667362
66	0xbd66f961	-0.05639017
67	0xbd0a55f6	-0.033773385
68	0xbd276cf3	-0.040875386
69	0xbd99c019	-0.07507343
70	0xbd738da7	-0.059461262
71	0xbd2666f0	-0.040625513
72	0xbadae2cd	-0.0016699672
73	0xbd24e4d3	-0.040257286
74	0xbd15d216	-0.036577307
75	0xbd265897	-0.04061183
76	0x3bf97278	0.0076125227
77	0x3d56f402	0.052478798
78	0xbdb4964e	-0.08817731
79	0xbd2bbadf	-0.04192626
80	0xbd682675	-0.0566773
81	0xbd2ba074	-0.041901067
82	0xbdc3b53d	-0.09556053
83	0xbd3c7dd8	-0.04601845
84	0xbae61435	-0.001755363
85	0xbd7cdabd	-0.061732043
86	0xbce5393e	-0.027981397
87	0xbd95dd0f	-0.07317554
88	0xbda9d0d2	-0.082917824
89	0xbc2abcab	-0.0104209585
90	0xbd80b537	-0.06284564
91	0xbd91b086	-0.07113747
92	0x3ce3e275	0.027817944
93	0xbc0fdf24	-0.008781228
94	0xbcb5f9a8	-0.022213772
95	0x3cf3d705	0.029765615
96	0xbd6d2523	-0.057896744
97	0x3b38fe09	0.0028227589
98	0x3c7f69ac	0.015589159
99	0xbd042e77	-0.032270875
100	0xbce9ad6f	-0.028525082
101	0xbb11e808	-0.0022263546
102	0x3a6ed108	0.00091101276
103	0xbcd4adc7	-0.02596177
104	0xbdb6b027	-0.08920317
105	0x3c18e64d	0.009332252
106	0x3c522164	0.012825344
107	0xbc8ccbdc	-0.017187051
108	0x3caee33f	0.021348594
109	0xbdeafaae	-0.114735946
110	0xbdc954d0	-0.0983063
111	0xbc7b454b	-0.015336345
112	0xbcafbcfa	-0.021452416
113	0x3c7d78dd	0.015470711
114	0xbd99b0e4	-0.07504442
115	0xbd6b8e62	-0.057508834
116	0x3cc34872	0.023838256
117	0x3d320d9a	0.043470003
118	0xbd28e5ba	-0.04123471
119	0xbe03e097	-0.12878643
120	0xbd2f7b9b	-0.04284249
121	0x3ce2a616	0.027667087
122	0x3cba39e7	0.022732688
123	0x3a333ca3	0.00068373437
124	0xbd9641cf	-0.07336771
125	0xbd03be9e	-0.03216421
126	0xbd7dc262	-0.061952956
127	0xbccbac56	-0.02486245
